RL-Final-Env/model.pth (torch, 230056 bytes, 8 tensors)

weight f4 [256, 48]
0	0xbc75950a	-0.014989147
1	0xbd9cf4aa	-0.076638535
2	0xbd7000fc	-0.05859469
3	0x3d07adea	0.03312484
4	0xbcbb5636	-0.022868257
5	0xbe0e0aa2	-0.13871244
6	0xbdc46e02	-0.09591295
7	0xbc0c7053	-0.008571702
8	0x3dc3afda	0.095550254
9	0xbda238c2	-0.07920982
10	0x3d08d732	0.03340835
11	0x3d2f5bb0	0.04281205
12	0x3e04ceb9	0.12969483
13	0xbdfa5ea3	-0.12225082
14	0x3da25858	0.079270065
15	0x3d74e394	0.059787348
16	0xbdffd970	-0.12492645
17	0x3d9f1748	0.077681124
18	0xbdc53107	-0.09628492
19	0x3d5ca437	0.053867545
20	0xbca4c70d	-0.020114446
21	0x3de49e40	0.11162996
22	0xbd5ee1c2	-0.05441452
23	0xbd893f25	-0.06701497
24	0xbd886100	-0.06659126
25	0x3c8a9e54	0.0169212
26	0xbd6f1c9b	-0.05837689
27	0xbe0f21fd	-0.13977809
28	0xbe0dcf41	-0.13848592
29	0x3e1102bc	0.141612
30	0x3dde86d6	0.10865562
31	0x3d39b935	0.045342643
32	0xbe0af485	-0.1356984
33	0xbd962765	-0.07331733
34	0xbbcb9b09	-0.00621355
35	0x3da310f3	0.07962217
36	0x3de73d89	0.11291034
37	0x3da538da	0.08067484
38	0xbd9159b6	-0.07097189
39	0xbe09ffc3	-0.13476472
40	0xbd2eaed8	-0.042647213
41	0x3d146352	0.03622753
42	0xbda49a8f	-0.08037292
43	0x3bef65bb	0.0073058284
44	0x3d8e3eb3	0.06945553
45	0xbc66d133	-0.014087963
46	0x3dce033e	0.10059212
47	0xbdb272e5	-0.08713321
48	0xbd2f49cf	-0.042795
49	0x3c951aaf	0.0182012
50	0xbd038d4b	-0.03211717
51	0x3c75df60	0.01500687
52	0x3d87abf7	0.066245966
53	0xbd8c98ba	-0.06865068
54	0x3c197b6d	0.009367806
55	0xbe0eb95e	-0.139379
56	0x3d130a10	0.03589827
57	0x3d7fb021	0.06242383
58	0xbbc65986	-0.0060531525
59	0xbde1d02b	-0.11026033
60	0xbdfee353	-0.124457024
61	0x3e0ac854	0.13552982
62	0xbdc17c12	-0.09447493
63	0x3dba8830	0.09108007
64	0x3e0365af	0.12831758
65	0xbd08a83b	-0.033363562
66	0xbda78e4b	-0.08181437
67	0xbc831ee4	-0.01600594
68	0x3c7cfc8e	0.015441073
69	0xbd913b66	-0.070914075
70	0x3daea4ec	0.0852755
71	0x3df45c8d	0.11931715
72	0x3ddccc8c	0.10781202
73	0x3ca527b8	0.020160541
74	0x3e03cf08	0.12871945
75	0xbe06717b	-0.13129227
76	0xbc056408	-0.008141525
77	0xbe0fc0e3	-0.14038424
78	0x3d1f9226	0.038957737
79	0xbcb6853f	-0.022280334
80	0x3d42efcb	0.047591966
81	0x3db45b98	0.088065326
82	0xbd9b4227	-0.07580977
83	0x3d925e0f	0.071468465
84	0xbdfe2825	-0.12410001
85	0x3d81a913	0.063310765
86	0xbc97be00	-0.018523216
87	0xbdfb53b9	-0.12271828
88	0xbe005d05	-0.12535484
89	0xbca4c8e4	-0.020115323
90	0xbbf0eb71	-0.0073522856
91	0x3de6ddd5	0.1127278
92	0x3df80902	0.12111093
93	0xbd92cb5c	-0.07167694
94	0x3db89565	0.0901287
95	0xbd90578b	-0.070479475
96	0xbcdc27c7	-0.026874436
97	0xbe106875	-0.14102347
98	0x3d3d0096	0.046143137
99	0xbd6d5a53	-0.057947468
100	0xbde2a494	-0.11066547
101	0xbde97473	-0.11399164
102	0x3e0658de	0.13119838
103	0xbdb88320	-0.09009385
104	0xbdc6c678	-0.09705824
105	0xbd8f88f8	-0.070085466
106	0x3c2636ee	0.010144932
107	0x3d9be34a	0.07611711
108	0xbc9bf954	-0.019039787
109	0xbdefb365	-0.11704139
110	0xbcdae112	-0.02671865
111	0x3de64528	0.11243659
112	0xbe03d53b	-0.1287431
113	0xbdfe9624	-0.12430981
114	0xbd9307c1	-0.07179213
115	0x3b9d7bf0	0.0048060343
116	0xbc9ca90f	-0.019123582
117	0xbdd3ac03	-0.10335543
118	0x3e0b550a	0.13606659
119	0xbddd2689	-0.107983656
120	0xbd8d9333	-0.06912842
121	0x3d6fd6fb	0.05855463
122	0x3dcea583	0.100901626
123	0xbdf60134	-0.12011948
124	0x3d19cec8	0.037550718
125	0x3c5d856f	0.013520583
126	0x3d22bdc2	0.03973175
127	0xbd0e81e1	-0.03479183
128	0xbdf99242	-0.121860996
129	0x3d11bfcd	0.035583306
130	0xbdc57641	-0.09641696
131	0xbd9cffe8	-0.07665998
132	0x3d9591d8	0.07303208
133	0xbbada98f	-0.005299754
134	0xbbccc157	-0.006248634
135	0x3e09e6a9	0.13466896
136	0x3cb7c043	0.022430545
137	0xbde4ef5e	-0.11178468
138	0x3ceb6878	0.028736338
139	0x3d9a212e	0.0752586
140	0x3e13c515	0.1443065
141	0xbdfe6ed5	-0.12423483
142	0x3dad27fb	0.08454891
143	0x3c195e33	0.009360838
144	0x3da29726	0.079389855
145	0x3e070ae4	0.13187748
146	0xbe0e0971	-0.13870789
147	0x3d9dcec4	0.07705453
148	0x3e077507	0.13228236
149	0xbe05329f	-0.13007592
150	0x3df141ba	0.117801145
151	0xbe008bbc	-0.12553304
152	0x3ddbe888	0.10737711
153	0xbd4818c1	-0.048851732
154	0xbcc1fbaa	-0.023679573
155	0xbbc2b0a1	-0.005941466
156	0x3d888c79	0.06667418
157	0xbdad9c7a	-0.08477111
158	0x3d59f7f2	0.053214975
159	0x3dbf7c72	0.09349908
160	0x3dc0c6f4	0.09412947
161	0xbdc7eeb9	-0.097623296
162	0x3cf81892	0.030285154
163	0xbd8a45a2	-0.06751563
164	0xbd09c179	-0.033631776
165	0xbd2b0dc3	-0.04176117
166	0xbde21167	-0.110384755
167	0xbdcdcf96	-0.100493595
168	0x3d9c336c	0.076269954
169	0x3d1fccd2	0.03901369
170	0x3d9e1e66	0.07720642
171	0x3ba81229	0.005129118
172	0xbe1215c0	-0.1426611
173	0xbcdea7fd	-0.027179712
174	0xbd3fda36	-0.04683896
175	0x3e016b7f	0.12638663
176	0xbddf33e1	-0.10898567
177	0xbd9d065b	-0.07667228
178	0x3e09cadd	0.13456292
179	0xbd7d8964	-0.061898604
180	0xbd18b939	-0.037286017
181	0xbe10e74e	-0.14150736
182	0xbd5b267f	-0.05350351
183	0xbdb452ed	-0.08804879
184	0xbc62c8f9	-0.013841861
185	0x3d82058b	0.063487135
186	0x3bf0cc1f	0.007348552
187	0xbe138f2d	-0.14410086
188	0xbe06ff6a	-0.1318337
189	0x3cfcba16	0.030850451
190	0xbd099a20	-0.03359425
191	0xbd511cb1	-0.051052753
192	0xbbb41d5b	-0.0054966635
193	0x3da31e08	0.079647124
194	0x3dc362f2	0.09540357
195	0xbd9a6ebf	-0.075406544
196	0xbdd9fc9a	-0.10643883
197	0xbc7da6a8	-0.0154816285
198	0x3deafbe2	0.11473824
199	0x3da57b4d	0.080801584
200	0x3cf23541	0.029566409
201	0xbdf70a3c	-0.12062499
202	0x3d49dfe2	0.049285777
203	0xbde0638e	-0.109564885
204	0xbc865b23	-0.01640088
205	0x3dad9a69	0.08476717
206	0x3dc7f88e	0.09764205
207	0x3dbc982d	0.09208713
208	0xbd46bee2	-0.048521884
209	0xbd7c2742	-0.061560877
210	0x3d82cae8	0.063863575
211	0xbc9ee9e7	-0.019398643
212	0x3de265a8	0.11054546
213	0x3d4ec0a4	0.050476685
214	0x3d726281	0.059175972
215	0xbd97f6bf	-0.0742011
216	0xbdc8a89f	-0.09797787
217	0xbd0a9169	-0.03383008
218	0x3d9df290	0.07712281
219	0xbdd97d22	-0.1061957
220	0xbd86f5ad	-0.06589828
221	0x3e07cade	0.13260981
222	0xbe09156f	-0.13387083
223	0x3dc97df8	0.0983848
224	0xbc86a8ca	-0.016437907
225	0x3e0ec470	0.13942122
226	0x3ccb4fbb	0.024818292
227	0xbdfd7ee9	-0.12377722
228	0xbd4435ec	-0.047902986
229	0xbcc878b3	-0.024471616
230	0xbda51b45	-0.08061842
231	0xbc9b8417	-0.018983884
232	0xbdef14a1	-0.116738565
233	0xbdbdb766	-0.09263496
234	0xbd963e88	-0.07336146
235	0x3dfcbd6f	0.12340819
236	0x3d98799d	0.07445071
237	0xbe10f8bd	-0.14157386
238	0xbdf52f60	-0.11971927
239	0xbe00bf04	-0.12572867
240	0x3d0f3bf7	0.034969296
241	0xbcc91222	-0.02454478
242	0x3c76ebd8	0.015070878
243	0x3e06279c	0.13101047
244	0xbd6f4505	-0.05841543
245	0x3d61be5c	0.05511318
246	0xbdc0ad45	-0.094080485
247	0x3d76a22d	0.060213257
248	0xbd0129a9	-0.03153387
249	0x3e08d2d0	0.13361669
250	0xbdd0fcf5	-0.10204498
251	0xbcecab9b	-0.028890422
252	0x3d1122df	0.035433646
253	0x3e0e2032	0.13879469
254	0x3db5a643	0.088696025
255	0xbc9919e4	-0.018689103

bias f4 [256]
0	0xbb52237a	-0.0032064603
1	0xbd0b127c	-0.033953175
2	0xbd861843	-0.06547596
3	0x3d0e9428	0.03480926
4	0xbbb3bf65	-0.0054854625
5	0x3d1b5eb0	0.037932098
6	0xbdad3a13	-0.084583424
7	0x3d5dcf69	0.05415288
8	0xbdada202	-0.08478166
9	0x3d831db6	0.06402151
10	0xbc99bddc	-0.01876729
11	0xbdd7e4f2	-0.10541715
12	0xbcf76b38	-0.030202493
13	0x3d795e69	0.060881052
14	0xbdd67b00	-0.10472679
15	0xbde1cdf8	-0.110256135
16	0x3d073cb8	0.03301689
17	0xbcfc71a1	-0.030815901
18	0xbdea17a4	-0.1143029
19	0x3e049384	0.12946898
20	0x3e06280a	0.13101211
21	0x3d8a8de2	0.06765343
22	0x3ce23beb	0.027616462
23	0x3d23e5d4	0.040014103
24	0xbd804cbe	-0.062646374
25	0xbc946033	-0.018112278
26	0x3c74e4f3	0.014947164
27	0xbd9edd2f	-0.07757031
28	0xbc89ec81	-0.016836407
29	0x3e1011a1	0.14069225
30	0x3dc0f9fc	0.09422681
31	0x3ddc2414	0.10749069
32	0x3e0e7daf	0.13915132
33	0x3e078292	0.13233402
34	0xbde24ca2	-0.11049773
35	0x3d3b00d6	0.045655094
36	0x3d994cf1	0.074853785
37	0xbd3ff0d2	-0.046860524
38	0x3d6cbdd4	0.05779822
39	0x3c933e39	0.017974006
40	0xbd0f742f	-0.03502291
41	0xbdf72f0f	-0.120695226
42	0xbde4e197	-0.1117584
43	0xbd6fbfb9	-0.05853245
44	0xbdd3b137	-0.103365354
45	0xbcc17be4	-0.023618646
46	0xbd8c6939	-0.06856007
47	0xbc940d0f	-0.018072633
48	0xbd45d2fb	-0.04829691
49	0x3c817a70	0.015805453
50	0x3d31ff3e	0.04345631
51	0xbe066d04	-0.13127524
52	0x3dd4d175	0.10391513
53	0x3d3cace8	0.046063334
54	0x3d008359	0.031375263
55	0x3e126869	0.14297642
56	0xbd811149	-0.06302125
57	0xbd08a0ed	-0.033356596
58	0x3e00580e	0.1253359
59	0xbd52d46f	-0.051472124
60	0xbc5b8824	-0.013399158
61	0x3c3a8de9	0.011386373
62	0xbc929755	-0.017894426
63	0xbda04324	-0.07825306
64	0xbaa23e00	-0.0012378097
65	0x3cde906c	0.027168475
66	0x3dd9aca8	0.10628635
67	0x3d9977e2	0.07493569
68	0x3de08454	0.109627396
69	0x3c94d1f0	0.018166512
70	0xb8c9bf72	-9.620086e-05
71	0x3d85a242	0.06525089
72	0xbe0bca72	-0.13651446
73	0xbe083d79	-0.133047
74	0xbdd7f0c8	-0.10543972
75	0x3dd66244	0.104679614
76	0xbda7234b	-0.081610285
77	0xbda7b88e	-0.08189498
78	0x3d934115	0.07190148
79	0x3db2bfc3	0.08727982
80	0xbc9d8819	-0.019229935
81	0xbc9c4d30	-0.019079775
82	0xbc5f99ae	-0.01364748
83	0x3cf0ab89	0.02937867
84	0x3d0da8fa	0.034584977
85	0x3de12672	0.10993661
86	0xbe0733cf	-0.13203357
87	0x3d29bde3	0.041440856
88	0x3acbbdd3	0.0015544243
89	0xbdaf8a6d	-0.085713245
90	0xbda6774e	-0.08128224
91	0x3da35e1e	0.07976936
92	0x3e0b0892	0.13577488
93	0x3dbb3d25	0.09142522
94	0xbd9f2ca7	-0.07772189
95	0xbd349650	-0.04408866
96	0xbd62b10c	-0.055344626
97	0x3dfc139a	0.12308426
98	0xba704496	-0.00091654935
99	0x3d0f9c2f	0.035061058
100	0xbd754604	-0.059881225
101	0x3d884a5c	0.06654808
102	0xbdc20eac	-0.09475455
103	0xbda4c07e	-0.080445275
104	0x3df23d82	0.11828138
105	0x3de23a57	0.11046284
106	0x3d129563	0.035786998
107	0x3dab0f12	0.08352484
108	0x3c44e739	0.012018018
109	0x3da47d9a	0.08031769
110	0xbd11e93f	-0.03562283
111	0xbdf1c2e4	-0.118047506
112	0x3e0a302d	0.1349494
113	0xbd66a688	-0.05631116
114	0xbd7c8236	-0.061647616
115	0xbd8d1129	-0.06888039
116	0x3db7af69	0.08969004
117	0x3d8c5adf	0.0685327
118	0xbda9a4a8	-0.08283359
119	0xbdd6c3ab	-0.104865395
120	0x3ded9134	0.11599961
121	0x3ddf8659	0.10914297
122	0xbd82b76e	-0.06382643
123	0x3dc8a89f	0.09797787
124	0xbd1c828a	-0.03821043
125	0xbcad5e37	-0.02116309
126	0xbdf0233f	-0.11725473
127	0x3b1d9454	0.002404471
128	0x3d8dff1a	0.069334224
129	0xbdc43be8	-0.09581739
130	0xbd63b60c	-0.055593535
131	0x3d5c628a	0.05380491
132	0xbe0d9482	-0.13826182
133	0xbbdd235c	-0.0067486
134	0xbc1875ac	-0.009305399
135	0xbe06cdc9	-0.13164438
136	0x3df1f36f	0.118140094
137	0x3c11bc60	0.00889501
138	0x3d2a1572	0.041524358
139	0xbe0611fd	-0.130928
140	0x3e0f2ff5	0.13983138
141	0xbd148b08	-0.036265403
142	0xbde3a542	-0.11115505
143	0xbd04cfda	-0.032424785
144	0xbc6dcb61	-0.014513821
145	0x3dea3971	0.11436737
146	0x3d85a535	0.06525651
147	0xbd5c0957	-0.053719845
148	0xbdda4511	-0.106577046
149	0x3dcf4eab	0.101224266
150	0xbdb46aa2	-0.08809401
151	0xbccdd9ae	-0.025128212
152	0xbe05ea5c	-0.13077682
153	0xbe0b1265	-0.13581236
154	0x3e0d8618	0.13820684
155	0x3c9032f2	0.017602418
156	0xbdea8e59	-0.11452932
157	0xbcb6dcd2	-0.022322092
158	0xbd895441	-0.06705523
159	0x3d7a6a8e	0.061136775
160	0xbcc6b7fe	-0.024257656
161	0xbcb24dd1	-0.021765621
162	0xbdfed8f1	-0.12443722
163	0xbd4f5983	-0.050622474
164	0x3b4cd465	0.0031254527
165	0xbca7f019	-0.02050023
166	0xbdf88b56	-0.12135951
167	0x3e1109e4	0.14163929
168	0x3aa3e782	0.0012504908
169	0x3d57ba63	0.052667987
170	0xbd20ea08	-0.03928569
171	0xbc280821	-0.010255844
172	0xbd5d3775	-0.054007966
173	0x3e0aa632	0.13539961
174	0xbdf0637a	-0.11737724
175	0x3df83392	0.12119211
176	0xbcebdf14	-0.028792895
177	0x3e002b71	0.12516572
178	0xbcc2dd3a	-0.02378713
179	0x3db1a251	0.086735375
180	0x3dcd0e58	0.100125015
181	0x3da0f189	0.07858569
182	0xbddf0399	-0.10889358
183	0x3da6c7d2	0.081435814
184	0xbdd82765	-0.10554389
185	0xbd0ad63e	-0.033895724
186	0x3c5b0b12	0.013369339
187	0xbde27fb1	-0.110595115
188	0x3e0fab39	0.1403016
189	0x3dd3aa55	0.10335223
190	0x3d6d0b84	0.05787231
191	0xbdf5f9b5	-0.120105185
192	0xbc8b2c77	-0.016988976
193	0xbda24b43	-0.07924511
194	0xbe06cc34	-0.13163835
195	0x3da56e82	0.08077718
196	0x3d37e151	0.044892613
197	0xbda6185c	-0.08110115
198	0xbdbd552d	-0.092447616
199	0xbd3192f0	-0.04335302
200	0x3d88f8f4	0.06688109
201	0xbd3af95e	-0.04564797
202	0xbe10c8a9	-0.14139046
203	0x3d913b38	0.07091373
204	0x3df4d090	0.11953843
205	0xbd26a16f	-0.0406813
206	0x3d88ae6e	0.06673895
207	0xbd790d50	-0.06080371
208	0x3d41fa42	0.047357805
209	0xbe0b93d1	-0.13630606
210	0x3d736fad	0.059432674
211	0xbe0c36a5	-0.1369272
212	0x3db0d7e9	0.086349316
213	0xbddd2c23	-0.10799434
214	0x3d2d122a	0.04225365
215	0x3df2e339	0.118597455
216	0x3d2534b1	0.040333454
217	0xbdf77e4d	-0.12084637
218	0x3def0a77	0.11671918
219	0xbd9d9aca	-0.07695539
220	0x3acba6ba	0.0015537359
221	0xbe0e00fc	-0.13867563
222	0xbd0bc446	-0.034122728
223	0xbca2e238	-0.01988326
224	0x3d989a7d	0.07451341
225	0xbd87999c	-0.066210955
226	0xbcb20270	-0.021729678
227	0x3ddd8c03	0.10817721
228	0xbe133b56	-0.14378104
229	0xbdf0ef77	-0.11764424
230	0xbdf3293a	-0.11873098
231	0xbdb52db4	-0.08846608
232	0x3d99bde5	0.07506923
233	0xbd1f3490	-0.038868487
234	0xbdec3be1	-0.115348585
235	0x3d35089c	0.044197664
236	0xbde82322	-0.11334826
237	0xbd243ee3	-0.040099036
238	0x3c399e86	0.011329299
239	0xbdf4f8dc	-0.11961529
240	0xbdc637cf	-0.096786134
241	0xbc9d3ec6	-0.019194972
242	0x3c7eb81a	0.015546823
243	0xbccb02cc	-0.024781607
244	0x3da9ea1c	0.08296606
245	0xbc8ebc11	-0.017423661
246	0x3de0c8a3	0.109757684
247	0xbe12f6e6	-0.14351997
248	0x3daea580	0.0852766
249	0xbc950d14	-0.018194713
250	0x3d1f02fb	0.0388212
251	0xbda3d0a4	-0.079987794
252	0xbe040c0e	-0.12895223
253	0x3c81072f	0.015750496
254	0x3dd34f80	0.10317898
255	0x3c6bbf5c	0.014388885

weight f4 [128, 256]
0	0x3d47cce0	0.04877937
1	0x3d553f34	0.05206223
2	0x3b218b80	0.00246498
3	0x3c8e1c00	0.017347336
4	0x3aeaf280	0.0017925054
5	0x3be5c580	0.007012069
6	0xbd23a47c	-0.039951786
7	0xbd38943e	-0.04506325
8	0x3c8ee930	0.017445177
9	0xb9cb1000	-0.00038731098
10	0xbc8d4bb0	-0.017248005
11	0xbb5f2040	-0.0034046322
12	0xbd7a4eb0	-0.0611102
13	0x3cfc042c	0.030763708
14	0xb81c9000	-3.732741e-05
15	0xbb029480	-0.0019924939
16	0x3d640a4e	0.05567389
17	0x3ce643cc	0.0281085
18	0x3bab8e80	0.005235493
19	0xbd229ece	-0.03970223
20	0xbd16600c	-0.03671269
21	0x3d37f9f8	0.044916123
22	0xbd3a6346	-0.04550483
23	0xbd19694e	-0.037453942
24	0xbd084a62	-0.033274062
25	0x3c753ac8	0.014967628
26	0x3d4bdacc	0.049769208
27	0xbd5141e2	-0.05108822
28	0xbcf4f948	-0.029904023
29	0xbcd14368	-0.025544837
30	0xbd351576	-0.04420992
31	0x3d131c1e	0.035915487
32	0x3d72b6e8	0.059256464
33	0xbd617faa	-0.05505339
34	0xbd6f0b46	-0.05836036
35	0x3d2b80e2	0.04187096
36	0x3d68eb54	0.05686505
37	0x3ccca644	0.024981625
38	0xbc8e8ed8	-0.017402098
39	0xbd7dbb7a	-0.06194637
40	0xbd1e28ec	-0.038613245
41	0x3c5fc888	0.01365865
42	0x3bd18370	0.0063938424
43	0xbca50650	-0.020144612
44	0x3cd6d20c	0.026223205
45	0xbcdee2bc	-0.027207725
46	0xbd227b40	-0.03966832
47	0xbcfcfcb8	-0.030882224
48	0x3d26c548	0.040715486
49	0xbd3759aa	-0.044763245
50	0xbd3af062	-0.045639403
51	0xbcd60e38	-0.026129827
52	0x3d17b282	0.037035473
53	0xbbc67680	-0.006056607
54	0xbd57c72e	-0.052680187
55	0xbca34bc8	-0.019933596
56	0x3d1e8730	0.038703144
57	0xbcded57c	-0.027201407
58	0x3d645a90	0.05575043
59	0x3d5fb6da	0.05461774
60	0xbcb3db1c	-0.021955065
61	0x3d2ce39c	0.042209253
62	0x3d50ce12	0.050977774
63	0x3d0eba8a	0.034845866
64	0x3a50f400	0.0007970929
65	0xbcabc828	-0.020969465
66	0x3d746d1c	0.059674367
67	0xbd3ad0c8	-0.045609266
68	0xbca8e7ec	-0.020618401
69	0x3d16b5ba	0.0367944
70	0xbc743230	-0.014904544
71	0x3d1d03ee	0.038333826
72	0xbd664fcc	-0.056228444
73	0x398fd000	0.00027430058
74	0xbd60b102	-0.054856308
75	0xbcbcfd58	-0.023070022
76	0xbd4ce840	-0.05002618
77	0xbd2b0bd2	-0.04175932
78	0xbd72c8e8	-0.05927363
79	0xbd62e95a	-0.055398323
80	0x3d35ca74	0.044382527
81	0x3d2f8ea6	0.04286065
82	0x3d0268da	0.031838275
83	0x3d706554	0.058690384
84	0xbc9e3dd8	-0.019316599
85	0x3ab1bc00	0.0013560057
86	0xbd79f102	-0.06102086
87	0xbccd6134	-0.025070764
88	0x3d15641e	0.036472432
89	0x3d67223a	0.056429125
90	0x3d0cf118	0.034409612
91	0x3d5e5a14	0.054285124
92	0xbd56a8ba	-0.052407004
93	0x3cfbdb2c	0.030744158
94	0x3c59f258	0.013302408
95	0x3c874b50	0.016515404
96	0x3d41dbcc	0.047328755
97	0x3d5a29f0	0.05326265
98	0x3cfcfa04	0.030880935
99	0x3cf4bd14	0.029875316
100	0x3c5b1748	0.01337225
101	0x3cb3961c	0.021922164
102	0xbd45521a	-0.048174
103	0xbd45a3b4	-0.048251823
104	0x3d6fd6a8	0.05855432
105	0xbcd54070	-0.026031703
106	0xbd01998a	-0.031640567
107	0x3d32c904	0.043648735
108	0xbd3325f0	-0.043737352
109	0xbd7eb428	-0.06218353
110	0x3c06d1e8	0.0082287565
111	0x3d41b1a0	0.047288537
112	0x3d27bea4	0.040953293
113	0xbd41a632	-0.047277637
114	0xbcf53d08	-0.029936329
115	0x3cf236dc	0.029567175
116	0xbd42fd2a	-0.047604717
117	0xbd6a3856	-0.057182632
118	0x3ccaf564	0.024775214
119	0x3c60efe8	0.013729073
120	0x3d5087e6	0.050910853
121	0x3c5c6300	0.013451338
122	0x3cf48694	0.029849328
123	0x3c349fd8	0.011024438
124	0xbd26fe4c	-0.04076986
125	0x3d6b1bd2	0.05739958
126	0x3d1f247c	0.038853154
127	0xbc5b0e80	-0.013370156
128	0xbce5e92c	-0.028065287
129	0xbc88bba0	-0.01669103
130	0x3c6f4500	0.014603853
131	0x3bccb780	0.006247461
132	0xbbe06b50	-0.00684873
133	0xbc8bb230	-0.01705274
134	0x3ac61c80	0.0015114695
135	0xbc68b100	-0.014202356
136	0x3d370032	0.04467792
137	0x3c28c8c8	0.010301776
138	0xbd1eb7da	-0.038749553
139	0xbc5f6d18	-0.01363685
140	0x3d66a000	0.05630493
141	0x3d3b0b9a	0.04566536
142	0xbd22beb4	-0.03973265
143	0xbc95081c	-0.018192343
144	0xbd3fc6dc	-0.046820506
145	0xbd0f6840	-0.03501153
146	0x3d0c8070	0.034302175
147	0xbd2bd676	-0.041952573
148	0xbcd73740	-0.026271462
149	0x3ad191c0	0.0015988871
150	0x3bac9920	0.0052672774
151	0xbd5e09be	-0.05420851
152	0xbccb4de8	-0.024817422
153	0xbd0e03b6	-0.034671508
154	0xbd4e469a	-0.0503603
155	0x3caa6f60	0.02080506
156	0x3d2d44dc	0.042301998
157	0x3cd1723c	0.025567167
158	0xbd2a6d26	-0.041608
159	0xbd656b36	-0.056010447
160	0xbcbea75c	-0.023273163
161	0xbd538f88	-0.051650554
162	0xbcba04f0	-0.022707433
163	0x3a962c80	0.0011457354
164	0x3c97e348	0.018540993
165	0x3bcf5a60	0.006327912
166	0x3d4be56c	0.04977934
167	0x3bdfcd50	0.006829895
168	0x3d163b1e	0.036677472
169	0x3c0c4020	0.0085602105
170	0x3cc1ea60	0.023671329
171	0xbd5663be	-0.052341215
172	0x3d105b0c	0.03524308
173	0x3d149dc0	0.036283255
174	0xbd37c81e	-0.04486858
175	0x3ce630c4	0.028099425
176	0xbd4d7fda	-0.050170757
177	0x3d157ec4	0.036497846
178	0x3c4ba9c0	0.012430608
179	0x3cc129c8	0.023579493
180	0x3d7b09a4	0.06128849
181	0xbd667bec	-0.056270525
182	0x3c6e3db0	0.014541075
183	0x3d43e93a	0.047829844
184	0xbd4e17ae	-0.05031555
185	0xbc941e88	-0.018080965
186	0xbd4cf03e	-0.0500338
187	0xbc35e4b0	-0.011101887
188	0x3c9bb44c	0.01900687
189	0x3d50597c	0.05086659
190	0xbd107274	-0.0352654
191	0xbcad8b78	-0.021184668
192	0x3c8e472c	0.017367922
193	0xbb9ab080	-0.0047207475
194	0xbcdc2878	-0.026874766
195	0x3ce56ab8	0.028004989
196	0xbd0d6d22	-0.034527905
197	0x3d6f6f1e	0.05845558
198	0x3d7155b4	0.058919623
199	0xbd01d9d4	-0.031701878
200	0x3d42560a	0.047445334
201	0x3d107408	0.035266906
202	0x3cd12aa0	0.02553302
203	0x3d00d7f6	0.031455956
204	0xbb99f430	-0.004698299
205	0xbbc77210	-0.0060865954
206	0xbd6b9d20	-0.057522893
207	0xbd6e4a14	-0.058176115
208	0xbc27b580	-0.010236144
209	0x3cbb4a48	0.022862568
210	0x3d753b8a	0.059871234
211	0xbd562196	-0.052278124
212	0xbd38f294	-0.045153216
213	0x3d40799a	0.04699097
214	0x3c2a7110	0.010402933
215	0xbd5c4fa0	-0.053786874
216	0x3bab8000	0.0052337646
217	0x3cdd7294	0.027032174
218	0x3c5eb688	0.0135933235
219	0x3c926594	0.017870702
220	0x3d01d6c8	0.031698972
221	0x3c826100	0.015915394
222	0xbc935b90	-0.017987996
223	0x3d4f4f70	0.050612867
224	0xbcaf0710	-0.021365672
225	0x3b0ab5e0	0.0021165535
226	0xbd4d9188	-0.050187618
227	0xbb764740	-0.003757909
228	0xbd221b42	-0.039576776
229	0x3d6cfbe0	0.057857394
230	0xbd46ead4	-0.048563793
231	0xbb8cb0b0	-0.0042935237
232	0x3d31435e	0.043277137
233	0xbd2bd658	-0.04195246
234	0xbba95ee0	-0.0051687807
235	0xbd09586a	-0.033531584
236	0xba0bb180	-0.0005328879
237	0xbd084956	-0.033273064
238	0xbd73d034	-0.05952473
239	0xbc1d7210	-0.009609714
240	0x3c347630	0.011014506
241	0xbcd292e8	-0.025704816
242	0x3bb53210	0.0055296496
243	0x3d2420dc	0.0400704
244	0x3d5e7608	0.054311782
245	0xbd17fb78	-0.037105054
246	0xbc7d3008	-0.015453346
247	0x3c73e880	0.014886975
248	0xbd57f4ea	-0.052723803
249	0x3d435c36	0.04769536
250	0x3a0e8580	0.0005436763
251	0x3d7c115a	0.061539985
252	0xbd77ae92	-0.060469218
253	0x3ca86bc8	0.020559207
254	0xbd455d26	-0.048184536
255	0x3c53e818	0.012933753

bias f4 [128]
0	0x3c8bc808	0.017063156
1	0x3d6370f0	0.055527627
2	0xbaf727c0	-0.0018856451
3	0x3d78f94a	0.060784616
4	0x3d1f3a1e	0.038873784
5	0xbc843018	-0.016136214
6	0x3d6fd8dc	0.058556423
7	0xbc6f4b98	-0.014605425
8	0xbd2ae79e	-0.041724794
9	0x3d0e3218	0.034715742
10	0x3bafbb00	0.0053628683
11	0x3d39d158	0.04536566
12	0xbbee3790	-0.007269807
13	0x3b0816c0	0.0020765513
14	0xbc4284f8	-0.0118725225
15	0xbd1700d0	-0.03686601
16	0xbcf6417c	-0.030060522
17	0xbca19ab0	-0.019727081
18	0xbd103e84	-0.03521587
19	0x3cccecf8	0.02501534
20	0xbd4f4d5a	-0.050610878
21	0xbc931094	-0.017952241
22	0xbd374486	-0.044743083
23	0xbd354aee	-0.04426091
24	0xbc696c10	-0.0142469555
25	0x3d32c824	0.0436479
26	0x3bdeed40	0.0068031847
27	0x3d699c50	0.057033837
28	0xbd675fce	-0.05648785
29	0xbb1e42e0	-0.0024148747
30	0x3cf49fb8	0.029861316
31	0x3d068f8c	0.03285174
32	0x3d13cd14	0.03608425
33	0xbd7c533e	-0.061602823
34	0xbafa2880	-0.0019085556
35	0x3d477822	0.048698552
36	0x3cf56f58	0.02996032
37	0x3d175f3a	0.03695605
38	0xba76eb00	-0.0009419173
39	0x3c6f9a68	0.014624216
40	0xbc133c80	-0.008986592
41	0xbc7f85f8	-0.0155959055
42	0x3bf7a8f0	0.0075579807
43	0x3c801d40	0.015638947
44	0xbca12fe4	-0.019676156
45	0x3d70eb84	0.058818355
46	0xbd5fdf40	-0.054656267
47	0x3cde6b54	0.027150787
48	0xbbea8ca0	-0.007157877
49	0xba925680	-0.0011164695
50	0x3d2fdece	0.042937092
51	0x3d6210e8	0.055191904
52	0x3d390774	0.045173123
53	0x3c9e74e4	0.019342847
54	0x3d4a5f80	0.049407482
55	0xbc6856b8	-0.014180832
56	0x3cce7494	0.025202073
57	0xbd779b1e	-0.060450666
58	0x3d102028	0.035186917
59	0x3ca2c748	0.019870415
60	0x3ccae20c	0.02476599
61	0x3d3f452e	0.046696834
62	0xbd5e5d5e	-0.05428826
63	0xbc342098	-0.010994099
64	0xbd0af8b0	-0.033928573
65	0xbd0f4e42	-0.03498674
66	0xbd3cde60	-0.04611051
67	0x3d67ada4	0.05656208
68	0x3c9c0610	0.01904586
69	0xbb7e2960	-0.0038781986
70	0xbb361400	-0.0027782917
71	0xbcc02380	-0.023454428
72	0xbc50c688	-0.012742646
73	0xbd35ddf2	-0.044401117
74	0x3d772642	0.06033922
75	0x3d30bc8c	0.043148562
76	0xbd50f0c8	-0.051010877
77	0xbd054a18	-0.032541364
78	0x3c9892a4	0.018624611
79	0x3d1a085c	0.03760563
80	0xbd598fd2	-0.053115673
81	0x3cadac30	0.02120027
82	0x3d190510	0.037358344
83	0x3d0b484c	0.034004495
84	0x3d06cc46	0.032909654
85	0x3d3b5328	0.0457336
86	0xbd3331b2	-0.043748565
87	0x3d17d008	0.03706363
88	0x3c41f2f0	0.011837706
89	0xbd48d6b4	-0.04903288
90	0xbd640644	-0.055670038
91	0xbd4df10a	-0.0502787
92	0xbbacd010	-0.0052738264
93	0x3d3019bc	0.042993292
94	0x3bcd7f60	0.006271288
95	0x3b9a5230	0.0047095045
96	0x3c1a8218	0.009430431
97	0x3d0abc8a	0.03387121
98	0xbd5aa7e8	-0.053382784
99	0xbd3641b6	-0.04449626
100	0xbc87161c	-0.016490035
101	0x3c8b2ddc	0.01698964
102	0xbd12a328	-0.03580013
103	0x3d59c858	0.05316958
104	0xbca4e8c4	-0.020130523
105	0xbd773a42	-0.060358293
106	0xbc9194d4	-0.017771162
107	0x3c935a1c	0.017987303
108	0x3d3a2e78	0.045454472
109	0xbd15d1e4	-0.03657712
110	0xbd7ab694	-0.061209276
111	0xbd22973e	-0.039695017
112	0x3d3b09de	0.045663707
113	0xbd1adc58	-0.037807792
114	0x3b354340	0.0027658492
115	0x3cf6b7e8	0.03011699
116	0xbd64264e	-0.055700593
117	0x3d7e8db2	0.06214685
118	0xbd2962e0	-0.04135406
119	0xbcc818b0	-0.024425834
120	0x3d1a5540	0.037678957
121	0x3d3e77be	0.046500914
122	0xbcfd7020	-0.030937254
123	0xbca07350	-0.019586235
124	0xbc299c30	-0.010352179
125	0xbb6f6ba0	-0.0036532655
126	0x3d62e38e	0.055392794
127	0xbd1214e2	-0.035664447

weight f4 [64, 128]
0	0xbd4bfa58	-0.049799293
1	0x3d90ec87	0.07076364
2	0x3d8a94c6	0.067666575
3	0xbd173ca3	-0.036923062
4	0xbd9b4769	-0.0758198
5	0xbce30039	-0.027710067
6	0x3da741fe	0.08166884
7	0x3c86ae37	0.016440494
8	0xbd151bbf	-0.036403414
9	0xbd65e586	-0.056127094
10	0xbd2d5638	-0.042318553
11	0x3d3f808a	0.046753444
12	0xbbaa6c0c	-0.0052008685
13	0x3d0c8d32	0.03431434
14	0xbd8f75f2	-0.07004918
15	0x3d917c9b	0.07103845
16	0xbd80e583	-0.06293776
17	0xbbe7d855	-0.0070753493
18	0x3da9cd10	0.08291066
19	0xbd4b8d24	-0.04969515
20	0xbaa8d203	-0.0012879971
21	0xbcfeefdb	-0.031120231
22	0xbc0ee061	-0.008720488
23	0xbd734f0f	-0.059401568
24	0x39fdb0ee	0.00048387743
25	0x3da63eb9	0.08117432
26	0xbd8dfec0	-0.06933355
27	0x3d73d719	0.059531305
28	0xbcb45c26	-0.022016596
29	0xbc03dfd7	-0.008048973
30	0xbd773eb8	-0.060362548
31	0xbda4a3bd	-0.08039043
32	0xbc452455	-0.012032588
33	0x3d8ea15f	0.06964373
34	0xbd29b0b2	-0.041428275
35	0x3b97275b	0.004612846
36	0x3d334add	0.043772567
37	0x3c41112c	0.011783879
38	0xbc8375ff	-0.016047476
39	0xbd446695	-0.047949392
40	0x3da22f0a	0.07919128
41	0xbc8f3f44	-0.017486222
42	0x3be21cff	0.0069004293
43	0xbd5c0d40	-0.053723574
44	0x3d8984da	0.067147925
45	0xbd3a7e75	-0.045530755
46	0xbb497179	-0.00307378
47	0xbcf0b384	-0.029382475
48	0x3cc022f2	0.023454163
49	0x3c44139c	0.011967566
50	0xbd83e41f	-0.06439995
51	0xbd720446	-0.059086107
52	0xbc8f0f67	-0.0174634
53	0x3d2d0040	0.042236567
54	0x3db3de88	0.08782679
55	0xbd014806	-0.031562828
56	0xbd913c3a	-0.070915654
57	0x3d06152c	0.032735035
58	0x3d5e8647	0.054327276
59	0x3cbc8c42	0.023016099
60	0xbd1a3f43	-0.037657987
61	0x3c653a59	0.013990962
62	0xbd1f46d3	-0.038885903
63	0x3c60aaf6	0.013712635
64	0x3d44dfd7	0.048065033
65	0x3c105057	0.008808217
66	0x3dad0609	0.08448417
67	0x3c941eb0	0.01808104
68	0x3c953bf6	0.018217068
69	0x3d960538	0.07325214
70	0xbd954114	-0.07287803
71	0x3d1af2a0	0.03782904
72	0xbd9cfaef	-0.07665049
73	0x3c92be8d	0.017913127
74	0x3d2ffd1f	0.042966004
75	0x3bdb2990	0.0066883042
76	0xbdae77b5	-0.08518926
77	0x3cb96677	0.022631867
78	0x3d06186c	0.032738134
79	0x3db3922a	0.08768113
80	0x3cbaeaab	0.022816977
81	0xbb7aa366	-0.0038244366
82	0x3bbd548c	0.005777901
83	0x3c8765b0	0.01652798
84	0x3b977b10	0.0046228245
85	0xbd9e7a73	-0.07738199
86	0x3d21658d	0.039403487
87	0xbda65950	-0.08122504
88	0x3d7ea383	0.062167656
89	0xbd75ff2f	-0.060057815
90	0x3d97b960	0.07408404
91	0x3d4c5f37	0.04989549
92	0xbc8c7867	-0.017147256
93	0x3d82c605	0.063854255
94	0x3c95274d	0.018207217
95	0x3d93af29	0.072111435
96	0x3d3ff224	0.046861783
97	0xbcb836ce	-0.02248707
98	0x3d4aea3b	0.049539786
99	0xbc51b79d	-0.0128001245
100	0xbd8104dc	-0.06299755
101	0xbd07b699	-0.033133123
102	0x3dad4bdd	0.084617354
103	0xbc7d525a	-0.015461529
104	0xbbdf936e	-0.006822995
105	0xbdae4f4e	-0.0851122
106	0x3d1b53cc	0.03792171
107	0x3c960900	0.018314838
108	0xbd80f5f3	-0.06296911
109	0x3d5b9a83	0.05361415
110	0x3cc85061	0.02445239
111	0x3d8df960	0.0693233
112	0xbd2b6c73	-0.041851472
113	0xbd80947c	-0.06278321
114	0x3db28b6d	0.087179996
115	0x3c770a64	0.015078161
116	0x3d9597bf	0.07304334
117	0x3d949a92	0.072560444
118	0x3c82fdb3	0.015990114
119	0x3d4ac5db	0.049505096
120	0xbd8c78bb	-0.06858965
121	0xbbf80252	-0.007568636
122	0x3d8fc539	0.07020039
123	0x3cbf4d99	0.023352431
124	0xba74b56b	-0.0009334895
125	0xbcdcabc1	-0.026937367
126	0xbd974399	-0.0738594
127	0xbce7adaa	-0.028281052
128	0xbd4c9960	-0.049950957
129	0xbd8994d3	-0.06717839
130	0xbc9ed7ec	-0.019390069
131	0xbd2dd876	-0.04244276
132	0x3da9976b	0.08280834
133	0x3d702faa	0.058639206
134	0x3c459885	0.012060289
135	0xbd7d0c32	-0.06177921
136	0x3c2209cd	0.009890032
137	0xbdae8d97	-0.085231
138	0xbd976f8f	-0.07394325
139	0x3c47c004	0.012191776
140	0xbd11c666	-0.035589598
141	0x3d8d917b	0.06912514
142	0xbda023c3	-0.07819321
143	0xbd6abf6d	-0.057311464
144	0xbd38cf9e	-0.045119874
145	0xbd96a88f	-0.07356369
146	0xbda11cc2	-0.07866813
147	0xbd90b095	-0.0706493
148	0x3d82d839	0.063888974
149	0xbd287778	-0.04112956
150	0xbd11e57d	-0.035619248
151	0xbbd5d725	-0.0065258914
152	0xbd229503	-0.03969289
153	0xbdb2ea5b	-0.08736106
154	0xbae4e486	-0.0017463125
155	0x3d0f5116	0.03498944
156	0xbd38208e	-0.04495292
157	0xbd4e6091	-0.05038506
158	0xbbc1dfbc	-0.005916564
159	0x3da1130e	0.078649625
160	0x3d20b1b7	0.039231982
161	0x3d33d591	0.043904845
162	0x3d70021f	0.058595773
163	0x3d333e3c	0.043760523
164	0xbda4628e	-0.0802661
165	0xbd916fc9	-0.071013995
166	0xbdb3ccd5	-0.08779303
167	0x3d85e009	0.06536872
168	0x3b6fcd6b	0.0036590945
169	0xbd0c4db6	-0.0342538
170	0x3d85f97c	0.06541726
171	0x3d8eee5e	0.06979059
172	0x3d81f2cd	0.06345139
173	0x3db0b10e	0.086275205
174	0x3d90b643	0.07066014
175	0x3db2236a	0.08698161
176	0x3d3cd12e	0.046097927
177	0xbbfa771e	-0.0076435944
178	0xbcf3ad28	-0.029745653
179	0xbc04136a	-0.008061269
180	0xbd38027b	-0.04492424
181	0x3c0b0756	0.008485636
182	0xbdafa14e	-0.08575688
183	0xbd67c69c	-0.056585893
184	0x3d569786	0.052390598
185	0x3daaa1a9	0.083316155
186	0xbc4e979c	-0.012609389
187	0xbcc8e303	-0.02452231
188	0xbc8b47ba	-0.017001975
189	0xbcb1e01b	-0.021713307
190	0x3d841774	0.06449786
191	0x3d7bf9a1	0.06151736
192	0xbcef919a	-0.029244233
193	0x3d973050	0.07382262
194	0x3d5bee5c	0.053694114
195	0xbd4be96b	-0.04978315
196	0x3d1ae500	0.037816048
197	0x3c94f699	0.018183993
198	0x3c79c3d2	0.015244441
199	0x3b69969b	0.0035642746
200	0xbcfb8b71	-0.03070614
201	0xbd76e0b5	-0.06027289
202	0x3d253de1	0.040342215
203	0xbda0a363	-0.078436635
204	0xbd6d83b7	-0.05798694
205	0xbd5871a3	-0.052842747
206	0xbd5f95bb	-0.054586153
207	0xbc95bd19	-0.018278645
208	0xbd0860fa	-0.03329561
209	0xbd94e0b5	-0.07269422
210	0xbcc95377	-0.024575932
211	0xbd956470	-0.072945476
212	0x3d952ad5	0.0728356
213	0x3d2742ac	0.040835068
214	0xbc1dd141	-0.00963241
215	0x3d9ac366	0.075568005
216	0x3c020c2d	0.007937473
217	0xbd038df9	-0.032117818
218	0x3c84b4b9	0.016199457
219	0xbd06adbb	-0.032880526
220	0xbd2c528f	-0.04207092
221	0x3d1f9189	0.038957153
222	0xbc716cb6	-0.014735391
223	0x3d5c0103	0.053711902
224	0xbc5ee7df	-0.013605087
225	0x3d74baa2	0.0597483
226	0xbcf48fbe	-0.029853698
227	0x3cda6513	0.026659524
228	0xbcfd1223	-0.030892437
229	0x3d58d13e	0.052933924
230	0xbd8c8a0e	-0.06862269
231	0xbd51abb4	-0.05118914
232	0xbce07d60	-0.027403533
233	0x3cbb994d	0.022900248
234	0xbc82c9c0	-0.015965343
235	0xbd9f4e03	-0.077785514
236	0xbdb20fd8	-0.08694428
237	0x3d99c29d	0.07507823
238	0x3d67d4c4	0.056599393
239	0xbd7599fa	-0.059961297
240	0x3d0fc3ae	0.035098724
241	0xbcb39d7f	-0.021925686
242	0x3d895dd8	0.067073524
243	0x3d8d64de	0.069040045
244	0xbd9b0b40	-0.07570505
245	0xb9f97166	-0.0004757747
246	0x3daffc9d	0.08593104
247	0xbc91db97	-0.017804904
248	0xbdb37651	-0.087628014
249	0x3c286a33	0.010279226
250	0x3d2168bc	0.039406523
251	0xbd4a946a	-0.049457945
252	0x3d7c3af8	0.061579674
253	0x3d928642	0.07154514
254	0x3dadde02	0.0848961
255	0xbd8a5bbb	-0.067557774

bias f4 [64]
0	0x3cdbad10	0.026815921
1	0x3db153e2	0.086585775
2	0x3d549679	0.051901314
3	0x3c36c6d9	0.011155807
4	0x3d743a59	0.059625957
5	0x3b56c818	0.0032773074
6	0xbbb7c1b1	-0.0056078066
7	0xbd5f5bc5	-0.054530878
8	0xbd9af1af	-0.07565629
9	0x3b24056a	0.002502764
10	0x3bf5f277	0.0075057107
11	0xbd3920c0	-0.04519725
12	0xbd05c756	-0.032660805
13	0x3cccf39c	0.025018506
14	0x3d7fa113	0.06240947
15	0x3c2a7356	0.010403475
16	0xb9de738d	-0.00042429232
17	0xbccaa0d2	-0.024734888
18	0xbd4de12d	-0.050263572
19	0x3c1282e3	0.008942339
20	0x3a212e82	0.0006148593
21	0x3d4c024f	0.04980689
22	0xbce6c24f	-0.028168825
23	0x3d9a9f76	0.07549946
24	0x3d6e3905	0.058159847
25	0xbd260896	-0.040535532
26	0x3c8948a5	0.016758272
27	0x3c56385f	0.013074963
28	0x3d61f1e9	0.055162344
29	0x3cc62ee9	0.02419229
30	0xbd972ee3	-0.0738199
31	0xbcd12e7a	-0.025534857
32	0xbce0511d	-0.027382428
33	0x3cc9f910	0.024654895
34	0xbd4774ff	-0.04869556
35	0xbbe69a94	-0.00703747
36	0x3c256856	0.010095676
37	0x3d7832ef	0.06059545
38	0xbd3a23ed	-0.045444418
39	0x3d8649c8	0.065570414
40	0xbcd37462	-0.025812332
41	0xbbbe872a	-0.0058144527
42	0xbdb466d3	-0.08808675
43	0x3cab6279	0.020920979
44	0xbd5b0323	-0.05346979
45	0x3cf7536c	0.030191146
46	0xbd16c490	-0.03680855
47	0xbd137a27	-0.036005165
48	0x3d349cc0	0.0440948
49	0xbc1258ba	-0.008932287
50	0x3cce5c36	0.025190454
51	0x3d602c0e	0.054729514
52	0xbce98c00	-0.02850914
53	0x3da5216e	0.08063017
54	0x3cadb8cc	0.021206282
55	0xbd871a85	-0.06596855
56	0x3da52e0a	0.08065422
57	0xbda4765a	-0.08030386
58	0x3c1ee0f5	0.009697189
59	0xbda59954	-0.08085886
60	0xbd1eced4	-0.038771465
61	0xbd1a8e59	-0.03773341
62	0xbd847f37	-0.06469577
63	0x3ce0f885	0.027462253

weight f4 [44, 64]
0	0xbdfc9db8	-0.1233477
1	0xbd17f708	-0.03710082
2	0x3d2538c8	0.040337354
3	0x3df6358c	0.12021932
4	0xbd19939c	-0.037494287
5	0x3c5b19c0	0.0133728385
6	0xbb47b580	-0.0030473173
7	0xbdb7bf04	-0.0897198
8	0xbca55558	-0.020182297
9	0xbddea2f8	-0.108709276
10	0xbcf7b318	-0.030236766
11	0xbd212800	-0.039344788
12	0xbdc67248	-0.09689766
13	0x3d9b5e4e	0.075863466
14	0x3ca6bdc0	0.020354152
15	0xbd348200	-0.04406929
16	0xbd5daee0	-0.054121852
17	0x3d1d1e34	0.038358882
18	0xbd66a6e0	-0.05631149
19	0xbd0e0450	-0.03467208
20	0x3d3cb0dc	0.046067104
21	0xbd2d2fd4	-0.04228194
22	0x3df4f704	0.11961177
23	0xbca65ed0	-0.020308882
24	0x3ba41b20	0.0050081164
25	0x3df7a044	0.12091115
26	0x3db70606	0.08936696
27	0xbde90114	-0.11377159
28	0x3d7f0828	0.062263638
29	0xbca7e480	-0.0204947
30	0x3ddb0544	0.10694364
31	0xbdb62824	-0.08894375
32	0xbda0cf76	-0.0785207
33	0xbdf58e98	-0.11990088
34	0xbd216d6c	-0.039410993
35	0xbcdd33c8	-0.02700223
36	0x3d1a7aa0	0.0377146
37	0x3c698db0	0.014254972
38	0xbdead1ac	-0.11465773
39	0xbded3a76	-0.11583416
40	0xbcd70d48	-0.02625145
41	0xbda1a13a	-0.0789208
42	0xbd7101f4	-0.058839753
43	0xbce82930	-0.028339952
44	0x3de9445e	0.11389993
45	0xbc874050	-0.016510159
46	0x3d9c5064	0.07632521
47	0xbcb1d540	-0.02170813
48	0x3d45f300	0.048327446
49	0xbd6d6a00	-0.057962418
50	0xbd8e858e	-0.06959067
51	0x3cf1c3a0	0.029512227
52	0x3cb66ff0	0.022270173
53	0x3d26c4f4	0.040715173
54	0x3c809a08	0.015698448
55	0x3d8b8610	0.0681268
56	0x3d01d380	0.031695843
57	0xbbc70b00	-0.0060743093
58	0x3cb3ac68	0.021932796
59	0x3d512140	0.0510571
60	0x3ce5bd20	0.028044283
61	0x3bc3bc60	0.005973384
62	0xbcfaa738	-0.030597314
63	0x3db2fc72	0.08739556
64	0xbcc3b738	-0.023891076
65	0x3de6c158	0.11267346
66	0x3cd43ac0	0.02590692
67	0x3d983e7c	0.07433793
68	0xbd54607c	-0.051849827
69	0x3d983f1a	0.07433911
70	0xbd4f8618	-0.05066499
71	0xbda6c98a	-0.08143909
72	0x3d4aef9c	0.049544916
73	0x3cfc3588	0.030787244
74	0x3d90c9fe	0.07069777
75	0xbd92c3ec	-0.071662754
76	0xbd425f60	-0.047454238
77	0xbcd957d0	-0.02653113
78	0xbd91551c	-0.070963115
79	0x3d745080	0.059647083
80	0xbc8dcd18	-0.01730971
81	0x3ce665a8	0.028124645
82	0xbd2c9a14	-0.042139128
83	0xbd10e6c0	-0.03537631
84	0x3de105ea	0.10987456
85	0x3dc45bb4	0.095878035
86	0xbc6a0070	-0.014282331
87	0xbcbcb2a8	-0.023034409
88	0xbdb5d8a0	-0.088792086
89	0x3db8de5c	0.09026787
90	0xbc800270	-0.015626162
91	0xbdab56f8	-0.08366197
92	0x3df46c64	0.11934736
93	0xbdd92318	-0.10602397
94	0xbd6077e4	-0.054801837
95	0x3c78e3a0	0.015190989
96	0xbd45e63c	-0.04831527
97	0x3cb28960	0.021794021
98	0xbd9476ba	-0.07249208
99	0x3d9f93ea	0.07791884
100	0x3d251108	0.040299445
101	0xbda5a2ca	-0.0808769
102	0xbdacd6ea	-0.08439429
103	0xbd22b89c	-0.03972684
104	0xbc6c1290	-0.0144087225
105	0x3d161290	0.036638796
106	0x3cfee410	0.031114608
107	0x3db1aed8	0.08675927
108	0xbd2d9534	-0.04237862
109	0x3c808428	0.015688017
110	0x3d4c4504	0.049870506
111	0x3d39cc1c	0.04536067
112	0xbde41b9e	-0.1113808
113	0xbdba3298	-0.09091681
114	0x3d2364f4	0.0398912
115	0xbd80d0e0	-0.0628984
116	0x3c3a02d0	0.01135321
117	0x3d804ac0	0.062642574
118	0x3da67850	0.081284165
119	0x3da18590	0.07886803
120	0xbca156e8	-0.01969476
121	0x3d1611b8	0.03663799
122	0x3cce6d10	0.02519849
123	0xbb2f2dc0	-0.002673015
124	0xbd9051b6	-0.07046835
125	0x3dad8ee4	0.0847452
126	0x3c55f410	0.013058677
127	0x3df58ac2	0.119893566
128	0xbd508ee4	-0.05091752
129	0xbdf0516e	-0.117342815
130	0x3d8807d8	0.06642121
131	0xbd7bd480	-0.061481953
132	0x3c4302b0	0.011902496
133	0xbd5ea4c0	-0.054356337
134	0x3dcb0944	0.09913877
135	0x3dddd2aa	0.108311966
136	0xbdf29a3e	-0.118458256
137	0xbdc152b4	-0.094396025
138	0xbdc0ae90	-0.09408295
139	0x3dd69dbc	0.10479304
140	0xbdb3f4ea	-0.08786948
141	0x3de412b8	0.11136383
142	0xbd22ce5c	-0.03974758
143	0x3d50e6b4	0.051001266
144	0x3da0ad50	0.07845557
145	0xbc63a3b0	-0.013894007
146	0xbd4e6214	-0.050386503
147	0x3c014c20	0.007891685
148	0x3da47bc8	0.08031422
149	0xbd91a0c6	-0.07110743
150	0xbda4ee7e	-0.08053301
151	0xbd7e09fc	-0.06202124
152	0x3c27d7a0	0.01024428
153	0x3d261548	0.04054764
154	0xbde0b730	-0.1097244
155	0xbde1d1dc	-0.110263556
156	0xbdc16360	-0.094427824
157	0x3dde7984	0.10863021
158	0xbdf1f80c	-0.11814889
159	0xbdf737c4	-0.12071183
160	0xbd15d850	-0.036583245
161	0x3ddb9bfe	0.107231125
162	0x3dc98320	0.09839463
163	0x3bc07d20	0.005874291
164	0xbde28690	-0.11060822
165	0xbca41238	-0.020028219
166	0x3af7a600	0.0018894076
167	0xbdfb3f06	-0.1226788
168	0xbdafd240	-0.08585024
169	0x3dea9e52	0.114559785
170	0xbdf2cd22	-0.11855532
171	0xbd9bfdc0	-0.07616758
172	0xbdbcd984	-0.09221175
173	0x3d165f14	0.036711767
174	0xbdf73c70	-0.120720744
175	0x3d1baa44	0.038004175
176	0xba67c300	-0.0008841008
177	0xbddfdf8e	-0.109313115
178	0x3d64c07c	0.05584763
179	0x3d4e5b00	0.050379753
180	0x3c506f80	0.012721896
181	0x3d379248	0.04481724
182	0xbdfe0b10	-0.12404454
183	0x3dbcac1a	0.09212513
184	0xbdf49764	-0.11942938
185	0x3d2a25b8	0.041539878
186	0xbdd317de	-0.10307287
187	0xbd3a5d98	-0.045499414
188	0x3d8866ec	0.06660256
189	0x3dfd8a0c	0.12379846
190	0xbdb9481c	-0.09046957
191	0xbda8135a	-0.08206816
192	0x3d89c350	0.06726706
193	0x3c89f628	0.01684101
194	0x3d1d2a7c	0.038370594
195	0xbcf2d018	-0.029640242
196	0xbd937c66	-0.072014615
197	0x3deca504	0.11554912
198	0xbdd2a80a	-0.10285957
199	0xbdc020e0	-0.093812704
200	0x3d970fbe	0.073760495
201	0xbcab5548	-0.020914689
202	0xbd36809c	-0.044556245
203	0xbd681aa4	-0.05666603
204	0xbd9c960a	-0.07645805
205	0x3d9f4c92	0.077782765
206	0xbd825cd6	-0.06365363
207	0xbddfe80e	-0.10932933
208	0xbcae9e98	-0.021315858
209	0x3d9cf0de	0.07663129
210	0x3d3eefac	0.046615288
211	0xbbc77820	-0.006087318
212	0xbd25e50c	-0.04050164
213	0x3d2fdf04	0.042937294
214	0x3d5f2354	0.05447705
215	0x3dc4239c	0.095771044
216	0xbd85811a	-0.06518765
217	0x3d43934c	0.047747895
218	0xbdb5cf8e	-0.088774785
219	0x3a974680	0.0011541396
220	0x3dcf21a4	0.10113838
221	0x3a9fb000	0.0012183189
222	0x3dcde2ec	0.100530475
223	0xbd2c2618	-0.042028517
224	0x3cdd4d60	0.027014434
225	0x3da1a74e	0.07893239
226	0x3db4b442	0.08823444
227	0xbd6a0de4	-0.057142153
228	0x3d9df79e	0.07713245
229	0xbc2c06d0	-0.010499671
230	0xbcf56fd0	-0.029960543
231	0x3d89443c	0.06702468
232	0xbccfbba0	-0.025358021
233	0x3d98acf4	0.07454863
234	0xbdf73e82	-0.12072469
235	0x3cf07828	0.02935417
236	0xbde3a6a4	-0.111157686
237	0xbde29dba	-0.1106524
238	0xbc82a160	-0.01594609
239	0x3d3ee2c4	0.04660298
240	0x3b639ec0	0.0034732074
241	0xbdf37f94	-0.11889568
242	0xbd941ff6	-0.072326586
243	0x3db413f8	0.08792871
244	0xbde984e6	-0.114023015
245	0xbda50030	-0.080566764
246	0xbdd44ac4	-0.10365823
247	0x3dbcb488	0.09214121
248	0xbc0213d0	-0.007939294
249	0xbd2c58b0	-0.042076766
250	0x3d913a7c	0.07091233
251	0x3d3c6200	0.045991898
252	0x3b85ac40	0.0040793717
253	0x3d976c8c	0.073937505
254	0xbd2f3878	-0.042778462
255	0x3d57b4f0	0.05266279

bias f4 [44]
0	0xbd104670	-0.035223424
1	0x3dc2b8c4	0.095078975
2	0xbc871928	-0.016491488
3	0xbcc236b0	-0.023707718
4	0x3a022600	0.0004964769
5	0xbd9e9aee	-0.07744394
6	0xbce088e0	-0.027409017
7	0xbd7831a0	-0.0605942
8	0x3d124614	0.035711363
9	0xbdb0dece	-0.086362466
10	0xbdebedb4	-0.11519948
11	0x3d111a64	0.03542556
12	0xbb68f180	-0.0035544336
13	0xbdbb8a28	-0.091572106
14	0xbcf8a568	-0.03035231
15	0x3d2c7f4c	0.042113587
16	0xbda9d61a	-0.0829279
17	0x3b9fe820	0.0048799664
18	0xbd86b16a	-0.06576808
19	0x3d75a204	0.059968963
20	0xbb7cdd40	-0.0038584024
21	0x3d0203cc	0.031741902
22	0x3de3a71e	0.111158594
23	0x3ca18278	0.019715533
24	0xbcf111d8	-0.029427454
25	0x3df344c0	0.118783474
26	0x3b8f9bc0	0.0043825805
27	0xbdd73f5a	-0.1051013
28	0xbdede258	-0.11615437
29	0xbdaaa07e	-0.08331393
30	0xbddf1472	-0.108925715
31	0xbd3fce90	-0.046827853
32	0xbd63f400	-0.05565262
33	0xbb881840	-0.0041532815
34	0x3df7a12e	0.120912895
35	0xbd3ff7c8	-0.046867162
36	0x3bd9d740	0.0066479743
37	0xbcea9fa8	-0.028640583
38	0xbc6e9e10	-0.014564052
39	0xbc787570	-0.015164718
40	0x3de46c74	0.11153498
41	0xbdf20bea	-0.11818679
42	0x3da565f4	0.08076087
43	0xbcd31478	-0.025766596
