RL-Final-Env/model_wt.pth (torch, 228236 bytes, 8 tensors)

weight f4 [256, 48]
000000 06 aa 2b bd 01 fb d6 bd 1a e8 d2 bd 27 d2 f6 3c
       -0.041910194 -0.10497094 -0.10298176 0.030129505
000010 64 37 7c 3a 80 83 e5 3d a4 f6 06 bd b6 65 6e 3d
       0.0009621291 0.11206722 -0.03295006 0.058202468
000020 ac 1e 9a bd 1c 7c 0d 3e 85 56 07 3e d0 2f 7f 3d
       -0.075253814 0.13816875 0.13216598 0.062301457
000030 f8 fc 61 bd 08 9c 34 bd 88 6e aa bd e8 8a e5 bd
       -0.05517289 -0.044094115 -0.083218634 -0.11208135
000040 e3 9d 62 3d 98 32 1e 3c b3 db b2 3c 9d ce 83 3d
       0.055326354 0.009655617 0.021833276 0.06435893
000050 5d 1f b9 bb c3 d2 d9 3c dd 15 b7 3d 47 1a be 3d
       -0.0056494907 0.026589757 0.08939717 0.09282356
000060 03 32 0d be f5 42 19 3d 8b 36 e8 bc 38 b1 a6 bd
       -0.13788609 0.03741737 -0.02834632 -0.081392705
000070 37 cc b6 bd a2 56 ff bd ae 2a 72 3d 33 da c7 bd
       -0.0892567 -0.12467696 0.059122734 -0.09758415
000080 a0 29 66 3c 07 7b 5e 3b 7c a5 c1 bd ea f0 c6 3d
       0.01404801 0.0033947842 -0.09455392 0.097139195
000090 27 55 f2 3d 92 ce 05 bd f4 f6 f0 3d 2f 33 97 bd
       0.11832648 -0.032667704 0.117658526 -0.07382809
0000a0 23 6b 36 bd bb 7f 40 3b 5f 2d df bd 7a f7 04 be
       -0.044535767 0.0029373008 -0.10897326 -0.1298503
0000b0 18 f0 3c ba 08 bd 8f bd 00 ac a9 bd 3d 1f b0 bd
       -0.00072074076 -0.07018477 -0.082847595 -0.08599708
0000c0 3e ce be bd 7a b4 f2 3d 42 21 d1 bc bd b1 a0 3d
       -0.09316681 0.118508294 -0.025528554 0.07846401
0000d0 7c a9 83 bd 0f 79 91 3d d8 80 e8 bc cd c3 ec bd
       -0.06428811 0.07103168 -0.02838175 -0.115607835
0000e0 33 17 5f 3c fd 04 c9 bd 7f 20 03 3e fa 60 f0 bd
       0.013616371 -0.098154046 0.12805365 -0.11737247
0000f0 c8 e7 ff bd 03 a8 f2 bd 57 90 d0 bc ec ec e7 bd
       -0.12495381 -0.11848452 -0.025459452 -0.11324486
000100 5d 6b 77 bb 39 ab 9d 3d 50 e1 01 bd be e4 38 3d
       -0.0037753202 0.07698674 -0.031709015 0.04514002
000110 38 a3 ef 3d 05 34 ea bc 17 93 da 3d f0 ad da bc
       0.117010534 -0.028589258 0.106725864 -0.026694268
000120 34 41 2f bd e8 97 ca 3d cd 6f d8 bc d9 94 4c bd
       -0.042786792 0.09892255 -0.026420498 -0.04994664
000130 fc aa e1 3d f4 ae 30 bd ce 0d f4 3d 37 37 53 3d
       0.11018941 -0.0431356 0.119166955 0.05156633
000140 9f fb 9e bc 65 16 f7 3d 9a be cd bd 3b a8 b6 3d
       -0.019407092 0.12064818 -0.1004612 0.08918806
000150 b4 1a 96 3b 1e 7d f4 bd f4 4e b1 3d 01 d5 ed bd
       0.00458082 -0.11937927 0.08657637 -0.11612893
000160 4f 5a 70 bd 63 75 a0 bc f0 8e f8 3d 1a 60 8b bc
       -0.058679875 -0.019587224 0.12136638 -0.017013598
000170 c7 c2 27 bd da b6 e8 bd 62 bf d5 3d 99 18 ee 3b
       -0.04095724 -0.11363001 0.10436894 0.007266116
000180 f9 2a 76 bd d3 65 0d be 7c 85 3a 3d 3a 35 98 bc
       -0.060099576 -0.13808374 0.045537457 -0.018580068
000190 07 7d 42 bd 7d 41 0f bd b7 24 97 3d 6a 8e bc bd
       -0.047482517 -0.034974564 0.0738005 -0.09206851
0001a0 89 4e 12 bd f0 2d b5 bc 75 da 4c 3d 7c f8 09 3c
       -0.03571943 -0.022116631 0.050013024 0.00842106
0001b0 cc 2c 11 3e 2b 32 8f bd 0f a4 64 bc 7f e1 9d 3d
       0.14177245 -0.06991991 -0.01395513 0.077090256
0001c0 3e c8 ef 3d 94 34 f7 bd 87 51 f5 3c b1 c7 12 be
       0.11708115 -0.12070575 0.029946102 -0.14333989
0001d0 f7 9c 02 be d4 fc b3 bd 15 83 9f bd 4e 97 81 3c
       -0.1275519 -0.087884575 -0.07788674 0.015819218
0001e0 04 c2 a4 3d 4f 30 96 bd ca 7e 01 be f8 5b be bd
       0.08044818 -0.07333433 -0.12646022 -0.092948854
0001f0 9b b6 97 bc c2 31 08 3e b0 00 4f bd fe f3 0a 3b
       -0.01851969 0.13300231 -0.050537765 0.002120256
000200 a1 fb 9c bd 91 4a 0e be 40 e9 7b bd 1c 41 29 3d
       -0.07665182 -0.13895632 -0.06150174 0.04132186
000210 d1 ad 4a 3c 53 f9 97 ba db fb 05 be df c3 03 3d
       0.012370543 -0.001159469 -0.13084356 0.03216922
000220 8e bb a3 bc 45 3f 10 3e 6c 27 bd bd de 9e 21 bd
       -0.019986894 0.14086635 -0.09236035 -0.03945815
000230 68 4a da 3d 30 bb af 3d 61 d0 12 3e 9b a9 d8 3b
       0.10658723 0.08580625 0.14337303 0.0066120154
000240 43 a1 02 3e ef 9a 07 3d bd c4 51 3d 6e 1d 82 bc
       0.12756829 0.03310674 0.051213015 -0.015883174
000250 b4 1c 45 bb 0f ac 99 3d 32 f0 ae bb 9a 29 0c be
       -0.0030076923 0.07503521 -0.005338692 -0.13687745
000260 a9 be ee bd 21 fb 65 bd 41 a0 69 3d 3f 60 72 3d
       -0.11657459 -0.0561477 0.057037596 0.05917382
000270 72 17 a3 3c 9f ca 00 3e ff c9 5b 3d f5 e3 03 be
       0.01990864 0.12577294 0.053659435 -0.12879927
000280 37 4c c3 3d 19 cb f9 bd 88 e8 0e be 16 74 d9 bd
       0.09536021 -0.12196941 -0.13955891 -0.10617845
000290 b0 2b ec 3b 09 55 84 3c 5b 20 ee 3c a4 93 83 3d
       0.0072073564 0.01615383 0.029068163 0.064246446
0002a0 4b 17 65 3d 1f fe 00 3e 0d 9b c4 3c 4d 92 c6 3d
       0.055930417 0.1259694 0.023999715 0.096958734
0002b0 3e 04 f5 3d bd d7 ba 3c f6 c4 da bd 62 5d 94 3c
       0.119637 0.02280795 -0.106820986 0.018110935
0002c0 ba 08 73 3d 0e 5d 8c bd 3b 32 9a bc e2 55 fe 3c
       0.059334494 -0.06853686 -0.01882278 0.031046811
0002d0 b7 e8 d6 bc f0 9f 90 3d 61 2a df bd 8f 82 52 bd
       -0.026234014 0.07061756 -0.10896755 -0.05139404
0002e0 1e 4a 16 3c 28 3c 9f bd 50 12 04 be e2 ec 22 bd
       0.009172944 -0.07775146 -0.1289761 -0.03977669
0002f0 d3 31 00 be 57 e7 f5 3d 7b ab ef bc fa 83 c9 3a
       -0.12519006 0.12007015 -0.029256573 0.0015374415
000300 1e f3 7d 3d ac 8e d1 3d 78 19 73 3d 4a 89 0d be
       0.061999433 0.102322906 0.05935046 -0.13821903
000310 24 7e bc 3c 6e cf e4 bd ff 4d 0b 3e 89 9e 95 bc
       0.023009367 -0.111723766 0.13603972 -0.018264072
000320 3e b5 00 be 42 53 9a 3d bb 44 ca 3d 20 63 7c 3c
       -0.12569138 0.075354114 0.098763905 0.015404493
000330 fd b7 08 3e 7f 56 b1 3b a1 41 a3 bd b1 33 f2 bd
       0.13351436 0.0054119225 -0.07971502 -0.118262656
000340 6b af 41 bc 7c 8d 16 bd fc 3e bc bd ad 32 e9 bd
       -0.011821608 -0.036756024 -0.09191701 -0.11386619
000350 70 eb 92 bd 37 e7 11 3e 6d db e1 bd de 46 fc bd
       -0.071738124 0.14248358 -0.1102818 -0.12318204
000360 5e 06 02 be 81 aa 94 3d e9 df f7 bd ad b5 e1 3d
       -0.12697741 0.072590835 -0.12103254 0.1102098
000370 20 7c f7 3d 2a 33 44 ba 41 bc e7 bc 17 a9 94 bd
       0.12084222 -0.00074844307 -0.028288009 -0.07258814
000380 7e a3 02 be 54 98 14 bd e3 10 05 3e e3 93 5f 3d
       -0.1275768 -0.036278084 0.12994723 0.054584395
000390 cf 4a 08 bd 44 7b 11 3e a5 9d f4 bd 59 1a 91 bd
       -0.033274468 0.14207178 -0.11944131 -0.070851035
0003a0 23 47 93 bc 76 7d 5d bd b8 8b 4d 3d 12 8a f4 3d
       -0.017978257 -0.054074727 0.050182074 0.11940397
0003b0 8e f8 0e 3e 2d e7 fd 3c 64 2f d0 3d 3f 8b 06 be
       0.13962004 0.030994022 0.10165289 -0.13139056
0003c0 d8 1f 80 3d e0 b4 b4 3c c7 c6 55 bd a9 16 e4 3d
       0.06256074 0.022058904 -0.052191522 0.111371346
0003d0 08 47 bf bd ab 7a 48 3d e9 7c d1 ba 46 40 08 be
       -0.0933972 0.04894511 -0.0015982661 -0.13305768
0003e0 37 60 79 bd b2 d5 05 3e 32 5f 91 3d 16 c2 07 3e
       -0.060882773 0.130698 0.07098235 0.13257632
0003f0 ee 59 53 bd e3 56 2d bd 56 24 ad bb 98 67 29 bc
       -0.051599436 -0.04231919 -0.0052838726 -0.01033964

bias f4 [256]
000000 57 da d9 bc 8e 18 4a bd 25 21 ff 3d 17 9d c4 3d
       -0.02659337 -0.049339823 0.12457494 0.09600275
000010 bc 70 02 3e 28 aa fe bd 11 2c 07 3c 16 7a 73 bd
       0.12738317 -0.124347985 0.008250252 -0.059442602
000020 f9 7c b5 bd bc 85 c5 bd cd b5 87 bc 71 85 0b 3e
       -0.08861727 -0.096446484 -0.016566182 0.13625123
000030 4d 28 83 3d f9 c6 e7 bc bd 7c b6 3d f7 55 42 bd
       0.06404171 -0.02829312 0.08910511 -0.047445264
000040 a0 01 0b be c9 45 47 bd ff b1 81 3d f4 61 08 be
       -0.13574839 -0.048650537 0.06332778 -0.13318616
000050 dc 4c cc 3d ab 8c 75 bc 4b 8f 18 3d b0 7b 23 3d
       0.09975597 -0.014987151 0.03724603 0.03991288
000060 13 f9 cd 3c 83 16 83 3d 19 aa 92 3d 93 4d 9d 3d
       0.025143182 0.06400778 0.0716135 0.07680812
000070 51 f0 de bd 92 4c 7c 3d 9b 76 d2 3d 5f b7 11 3e
       -0.108856805 0.06159646 0.102765284 0.14230107
000080 98 ca e0 3d 84 2f e8 3d 52 84 be 3d 59 5d ad bd
       0.10976142 0.11337188 0.09302582 -0.0846507
000090 f6 63 ae bd 9d 58 08 be a9 d8 a3 bd 8c d3 9d 3d
       -0.0851516 -0.13315053 -0.08000309 0.07706365
0000a0 66 37 95 bd 59 bf 42 3c 9b bd ef bd d5 6a b6 bc
       -0.07285957 0.011886441 -0.11706086 -0.022267738
0000b0 14 50 d5 3d be f0 50 bd cd c5 05 3e 82 c2 b6 3d
       0.10415664 -0.05101084 0.13063736 0.08923818
0000c0 21 a8 f5 bd 41 7a e3 3d 8d 05 f5 bd cd ac 83 bd
       -0.11994959 0.111073025 -0.11963949 -0.064294435
0000d0 f8 77 f7 bd 39 cd 10 3d 82 ae 69 3c e5 7b 18 3d
       -0.12083429 0.035351966 0.014262797 0.03722753
0000e0 e2 7e 9a bd a2 fe e8 3d ef 63 bb 3d 34 29 85 3d
       -0.07543732 0.11376692 0.0914992 0.065019995
0000f0 e8 03 56 3d 58 9f 09 3e db 77 b4 3b 79 8a 18 3d
       0.05224982 0.13439691 0.005507452 0.037241433
000100 ff 00 b5 3d 24 a8 6a bb 8d e6 b0 3d 12 51 ec b8
       0.088380806 -0.0035805786 0.08637724 -0.000112684575
000110 b5 d8 b4 bd 49 7a 84 3d 17 ee 1d 3d f6 45 09 be
       -0.08830396 0.064686365 0.03855714 -0.13405594
000120 74 9d fe 3d 7b b7 f0 ba f5 f4 e0 bb f3 25 a3 3d
       0.124323756 -0.0018365228 -0.0068651387 0.079662226
000130 46 45 25 3d 9d 66 e3 bd ea 10 ef bd 6d 63 d2 3d
       0.040349267 -0.11103556 -0.11673148 0.1027287
000140 e0 60 39 3d be e7 88 bd 52 01 dc bd e8 ab 8d 3d
       0.045258403 -0.06684826 -0.10742439 0.06917554
000150 a7 3a c8 bd 0f 3b 1f bd b7 40 2e bd 71 1a 8c bc
       -0.09776812 -0.038874682 -0.042542186 -0.017102452
000160 64 a2 99 bd 2e 52 e0 3d df f5 fc bd 8e 40 f2 bd
       -0.07501677 0.109531745 -0.12351584 -0.11828719
000170 97 71 b7 bd 8d f2 c0 bc 4f d9 3b 3d 28 bc e9 3d
       -0.089572124 -0.023553157 0.04586154 0.11412841
000180 79 b2 10 3e 94 8c 08 3e 67 66 e7 bd 91 ef 4c bd
       0.14130582 0.13334876 -0.112988286 -0.050033156
000190 a7 56 5d bd 5c 87 b9 bc 34 dd 96 3d 5c 3f f7 bd
       -0.054037716 -0.022647552 0.0736641 -0.12072632
0001a0 6c ef 4e bc dc 00 3f 3d 43 c1 ce 3d 88 e8 9e bd
       -0.012630325 0.04663168 0.100954555 -0.077591956
0001b0 78 b2 03 be 16 5d a3 bb 34 c8 02 3e 5c 95 10 be
       -0.12861049 -0.004985462 0.12771684 -0.14119476
0001c0 e2 2d 19 bd 61 52 c8 bd 31 c6 e2 bd ce 8c 0c be
       -0.037397273 -0.097813375 -0.11072958 -0.13725588
0001d0 77 15 f4 3d 11 c3 9c 3d 4b 52 f4 3d 56 23 8c bd
       0.119181566 0.076543935 0.11929759 -0.06842677
0001e0 a4 31 0a bc d4 3c 11 3e 88 0b cf 3c 56 2e 69 3c
       -0.008434687 0.1418336 0.025274053 0.014232239
0001f0 d3 0f 9a 3d 46 12 2f 3d ec 95 a5 3b c8 db 8d bd
       0.075225495 0.042742036 0.0050532725 -0.069266856
000200 70 41 95 3c 7e f0 d3 3a 01 33 a5 3d 14 dd 24 3d
       0.01821968 0.0016169695 0.08066369 0.0402499
000210 87 27 88 3d 16 fd cb 3d 1f 83 6e bb 9e 4d 95 3d
       0.06648164 0.09960382 -0.0036394072 0.07290195
000220 52 5d 54 3d e7 5c f3 3d 77 0f 07 be 8b b5 99 3d
       0.05184681 0.11882954 -0.13189493 0.0750533
000230 6f 9c a0 3b ff bc 08 be 74 68 6c bc c5 bf b0 3c
       0.004901461 -0.13353346 -0.0144292 0.021575818
000240 6d 9f dd bd c3 e4 ba bc e1 02 0d 3d 9a c8 56 bc
       -0.10821424 -0.02281416 0.034426574 -0.013109351
000250 61 ef 92 bb 2a 99 1d bc db e7 c2 3d cc e3 a0 bd
       -0.0044841026 -0.009619037 0.09516879 -0.07855949
000260 8f ec bc 3d fe d9 6f bd 15 82 2d bd 00 80 b3 bd
       0.092248075 -0.058557503 -0.042360384 -0.087646484
000270 63 82 5f bd 5a e2 2a 3d 99 14 ff 3d 88 fd 1b 3d
       -0.054567706 0.041719772 0.124551006 0.038083583
000280 c5 bf cb bd 7c 48 d7 bd 75 7c c3 bd 7e 59 f4 bd
       -0.099486865 -0.10511872 -0.09545223 -0.11931132
000290 77 e8 d7 3d 1d 91 97 3d d0 3f 7a bd 54 c9 9e bd
       0.10542386 0.07400725 -0.061096013 -0.07753244
0002a0 9f 7f b3 bd 9c 45 1e bd 0d 91 3c bd ab ae 03 3e
       -0.08764576 -0.038640603 -0.04603677 0.128596
0002b0 d2 b3 5c 3d f0 65 b0 bd cc f1 f8 3d a8 de e0 bc
       0.053882428 -0.08613193 0.12155494 -0.02744992
0002c0 e8 ff f6 bd de 44 8a bd f3 51 e6 bd bf 4e 11 be
       -0.12060529 -0.067514166 -0.11246099 -0.14190196
0002d0 ba 06 92 3d fc c3 f3 3c 8e b3 bb bd 92 c2 90 3d
       0.07130189 0.029756539 -0.09165107 0.07068361
0002e0 56 1a 5c 3d f5 a6 a9 3d 77 c5 ff 3d b7 6b 04 bd
       0.053736053 0.08283798 0.12488835 -0.032329287
0002f0 07 88 89 3d 70 99 89 bd 17 bd 25 3d 79 44 00 3e
       0.06715398 -0.06718719 0.040463533 0.1252612
000300 81 d1 7b bd 9a 9a 7c bd 07 3d 24 3d ed f4 1b b8
       -0.061479095 -0.061670877 0.040097263 -3.7182985e-05
000310 d7 52 ee bc ef 2d 2c bd 3d 55 e2 3d 4b 46 a7 3d
       -0.029092235 -0.042035993 0.11051414 0.08167704
000320 e8 30 b5 3d ca a5 c7 bd 29 aa 86 3b 9e a9 f6 bd
       0.08847219 -0.09748419 0.00410964 -0.12044071
000330 ae 01 f5 3d 2e a4 10 be cd a2 ae 3d cf 1a 60 bd
       0.11963211 -0.1412513 0.085271455 -0.054713067
000340 8b 54 a2 bd 2c 7b c7 3d 0a 6e 49 bb 17 ac 10 be
       -0.079262815 0.0974029 -0.0030735754 -0.14128147
000350 ab 75 ee bd 8f dc f5 3d e0 18 e9 bd 32 2e ec 3d
       -0.11643537 0.12004959 -0.11381698 0.115322486
000360 f6 32 73 3d 11 13 13 bd d0 8f 60 3d 5b ec 9c 3c
       0.059374772 -0.035906855 0.05482465 0.019155672
000370 9d 61 92 3d 3f f1 0d 3e 56 c3 8f 3c 26 37 2a 3d
       0.071475245 0.1386156 0.017549198 0.0415565
000380 ee c8 84 3d c9 9f 0e be 6f 18 f5 3d 3f 9f 9e 3d
       0.06483637 -0.1392814 0.11967551 0.077452175
000390 13 b2 c8 bc af 3e 39 bc 0e 82 39 bd 0d 71 a2 bd
       -0.024498975 -0.011306449 -0.045290045 -0.07931719
0003a0 0f 1d e4 3d 62 62 17 3d 69 34 97 bd 8c f2 ee 3c
       0.11138355 0.03695906 -0.07383043 0.02916839
0003b0 0a 92 0c 3e 4c 30 0a be 3e bd 00 3e 58 63 b5 3d
       0.13727584 -0.13494986 0.1257219 0.08856839
0003c0 3a 9c 7b 3c c8 d0 c4 3c 60 0f e9 bc f4 b0 85 3d
       0.0153570715 0.024025336 -0.028449714 0.06527892
0003d0 73 da 74 bd b8 1b 13 3e 32 28 5e 3d 43 d9 ee bd
       -0.059778642 0.14366043 0.054237552 -0.11662533
0003e0 fe 78 9c bb 63 1f 0a 3e be 48 77 3d e0 7d e7 bd
       -0.0047751656 0.13488536 0.060372107 -0.113033056
0003f0 43 4d 04 be 4c 33 83 bd 9d 12 0d 3d 78 27 0e 3e
       -0.12920098 -0.064062685 0.03444158 0.13882244

weight f4 [128, 256]
000000 3c 96 d3 bc 58 ce 0d 3c 68 97 6d 3c 30 f4 0e bd
       -0.025828473 0.008655153 0.01450143 -0.034900844
000010 de 7a 0d bd d0 43 fa 3b 70 aa ca 3b 20 c6 5e 3d
       -0.034541003 0.0076374784 0.0061848685 0.054388165
000020 68 f1 b3 bc f0 34 f0 bb e0 16 43 bb 0c 85 64 bd
       -0.021965697 -0.0073305294 -0.0029768273 -0.055790946
000030 d0 0a e4 3c 64 09 56 bd f8 02 7c 3c 30 1a 4a bd
       0.027837187 -0.05225505 0.015381567 -0.04934138
000040 56 44 46 3d 6a d5 58 3d b8 d3 66 bd 94 f2 3c bd
       0.048405014 0.052937903 -0.056354254 -0.046129778
000050 d0 70 7c bc 90 d8 71 3c 90 2c 1e 3d a8 e7 51 bc
       -0.015407756 0.014761105 0.038616717 -0.012811579
000060 c0 c2 2d 3d 98 df 0a bc 4e e5 21 bd 2a 45 42 3d
       0.042422056 -0.0084761605 -0.039525323 0.04742924
000070 0c a8 9c bc 78 38 b1 bc 52 c0 07 3d 36 d9 23 3d
       -0.0191231 -0.021633372 0.033142395 0.04000207
000080 30 34 31 3d 08 eb 91 bc 82 9b 52 3d 90 66 f5 bb
       0.04326266 -0.017812267 0.051417835 -0.007489033
000090 60 c3 6a bd d2 54 39 bd 90 28 23 bc 3c 47 6d 3d
       -0.05731523 -0.045246907 -0.009958401 0.057929263
0000a0 30 82 28 bd 28 66 11 3d 20 58 08 3b 40 9a d4 bb
       -0.04113978 0.035497814 0.002080448 -0.0064881146
0000b0 d0 65 1c 3c b0 04 f5 bb 66 a9 05 bd 58 02 13 bc
       0.009545758 -0.0074773654 -0.032632254 -0.008972727
0000c0 58 6e 6a 3d e8 94 20 bd 8c b5 ce bc 14 00 7d 3d
       0.05723414 -0.039204508 -0.025233053 0.061767653
0000d0 4a ea 25 3d a0 86 be bb 54 f5 b4 3c e8 27 28 3c
       0.04050664 -0.0058143884 0.022089638 0.010263421
0000e0 f0 17 b5 3b de c4 01 bd c0 59 50 3c 18 4e 81 bc
       0.005526535 -0.031681888 0.012716711 -0.015784308
0000f0 66 fc 56 3d b2 61 2c 3d 46 a7 60 3d a8 14 62 3d
       0.0524868 0.042085357 0.054847024 0.05519548
000100 98 47 01 bd 20 e2 1a 3b fc d7 85 3c 88 2d bd bc
       -0.031562418 0.0023633316 0.016338341 -0.023093
000110 00 71 de 39 90 7f 7c bc 5e 69 47 3d 2c 8d 03 3d
       0.0004242733 -0.015411273 0.04868447 0.032117054
000120 f8 3c 3e bc 2a 30 72 bd 00 ef 77 3d c8 69 db 3c
       -0.011611216 -0.059127964 0.060530663 0.026783839
000130 1c da 44 bd 76 4d 01 3d a0 69 02 3b 12 65 73 3d
       -0.048059568 0.031568013 0.0019899383 0.05942256
000140 9a e1 51 bd 68 f3 12 3c de 99 26 bd 52 48 1f 3d
       -0.05124054 0.008969165 -0.040674083 0.03888733
000150 ca 20 5c 3d 80 cb 2a 3d 7e 1e 13 bd 12 ef 27 bd
       0.053742208 0.04169798 -0.03591775 -0.04099948
000160 ea 06 1e 3d 00 76 81 3c 78 74 a0 bc 6e 5f 4d bd
       0.038580813 0.015803337 -0.019586787 -0.050139837
000170 e8 25 6f bc 48 8f 79 bd ba 22 4f bd 10 01 41 3c
       -0.01459644 -0.06092766 -0.050570227 0.0117800385
000180 1a c5 14 bd b0 24 bc bb b0 32 a1 3c 5c 9c d7 bc
       -0.036320783 -0.005741678 0.01967749 -0.026319675
000190 b8 cc 65 bd dc cd 30 bd e2 ea 4d 3d 0e b0 67 bd
       -0.05610344 -0.043165073 0.05027283 -0.056564383
0001a0 88 a5 82 3c b6 ec 32 bd bc 91 5c bd f0 b9 13 3d
       0.015948072 -0.043682776 -0.05384992 0.036065996
0001b0 bc 5b 51 bd 60 2c 12 3d 80 a4 3c 3a 80 61 5f bb
       -0.051112875 0.03568685 0.0007196143 -0.0034085214
0001c0 02 4f 2c 3d fe a2 3c 3d 0a 33 22 3d 62 e3 20 bd
       0.042067535 0.04605388 0.039599456 -0.03927935
0001d0 78 e4 78 3d cc d1 b2 3c 20 6e 7a 3c a4 3a 85 3c
       0.06076476 0.021828555 0.015285045 0.016263314
0001e0 d2 d6 5d 3d 44 6b f9 3c ec fc 7f 3d 28 ca 6a bc
       0.054159947 0.030446656 0.062497064 -0.014330424
0001f0 20 29 a2 3c 22 49 74 3d 58 5b 09 bc a0 14 84 bb
       0.019795 0.059640057 -0.008383594 -0.004030779
000200 f8 f2 1d 3d 08 ca 01 3d 64 98 f2 3c 04 97 86 3c
       0.03856179 0.031686813 0.029613681 0.016429432
000210 04 20 b5 3c d8 ab 32 3d fc fd e5 3c 82 42 55 bd
       0.022109993 0.043620914 0.02807521 -0.05206538
000220 bc 07 6d bd 88 5b 2b 3d d8 d0 1a bd 68 70 42 bc
       -0.057868704 0.041835338 -0.037796825 -0.01186762
000230 54 ff cb bc 58 57 23 bc 94 8f 3e 3d f0 78 39 bc
       -0.024902023 -0.009969555 0.046523646 -0.011320338
000240 90 ae a7 3c 00 92 76 3b 0c 6e 01 3d d8 4c 85 bc
       0.02046898 0.0037623644 0.03159909 -0.016271994
000250 00 17 f8 bc 80 7a 69 3a 00 e8 93 b8 d8 80 4f bc
       -0.030284405 0.00089064986 -7.0527196e-05 -0.012664996
000260 98 c2 3e bc 60 3c af bc 12 bd 19 bd 4c 31 be bc
       -0.011643074 -0.021391094 -0.037533827 -0.023216866
000270 f4 35 df 3c 84 27 0d 3d 4a 3d 51 3d ec 37 23 3d
       0.027247407 0.034461513 0.05108384 0.039848253
000280 c0 ca df 3a d0 ee 19 3c b0 06 c2 bc a0 31 48 3b
       0.0017073974 0.009395316 -0.02368483 0.0030547157
000290 40 06 0c 3c 02 1b 3c 3d 28 dd 51 bd 34 4c 2f bd
       0.008546412 0.045924194 -0.0512363 -0.042797282
0002a0 38 d9 3e bc b0 04 3b 3d 82 29 61 bd 82 dd 01 3d
       -0.011648469 0.045658767 -0.054971226 0.031705387
0002b0 08 0c 66 bc 84 07 fe bc 50 53 08 bd 42 9e 0a 3d
       -0.014040954 -0.031009443 -0.033282578 0.033842333
0002c0 9e 9f 26 bd 28 45 1f bc d4 c7 97 bc a0 88 f6 3c
       -0.040679567 -0.009721078 -0.018527903 0.030094445
0002d0 18 04 79 3d d8 21 16 bc 54 ab 9a bc 42 ae 6d 3d
       0.06079492 -0.009163342 -0.018880524 0.058027513
0002e0 ac 4c 35 3d 18 f3 57 bd 3e dc 1f bd e0 38 6d bd
       0.044262573 -0.052722067 -0.0390284 -0.05791557
0002f0 b2 68 27 3d 7c 2c ec bc b8 ce 22 bc e6 7b 57 bd
       0.04087133 -0.028829806 -0.009936981 -0.052608393
000300 50 6f 3c bd 44 0f 40 bd ca 6d 0a bd d0 ce e4 bb
       -0.046004593 -0.04688956 -0.03379611 -0.006982662
000310 d8 88 68 bc b0 43 9c bc 60 51 eb 3b e0 f7 66 3d
       -0.014192782 -0.019075245 0.0071813315 0.056388736
000320 40 0c c1 bb 20 2b b7 3c da 68 49 bd b8 37 0d 3c
       -0.005891353 0.02235943 -0.04917226 0.008619241
000330 fa 4f 43 bd b0 9f b9 3b c0 8e 06 3d 10 43 ff 3c
       -0.047683693 0.005664788 0.03285098 0.031159908
000340 b2 6b 28 3d 90 48 8a 3b 54 d1 21 bd f8 ce 85 3c
       0.04111833 0.004220076 -0.03950627 0.016334042
000350 28 26 62 bc 30 28 dc bc b8 1c ec bc 00 0f be bb
       -0.0138030425 -0.026874632 -0.028822288 -0.005800128
000360 d4 33 e4 3c 7c 38 d5 bc 30 62 5d bc 1c ce 8a 3c
       0.027856745 -0.02602791 -0.013512179 0.016943984
000370 d2 00 22 3d 82 87 35 3d 54 bc 43 3d 10 41 38 bc
       0.039551564 0.044318683 0.047787026 -0.011245981
000380 54 f3 75 3d fc 8b a1 3c 80 7a 12 bc 60 31 8c 3b
       0.06004651 0.01972007 -0.008940339 0.004278347
000390 b6 ea 75 3d cc 57 73 3d 20 b6 62 bd d0 1e b2 bb
       0.06003829 0.0594099 -0.05534947 -0.005435802
0003a0 50 97 55 bd b0 d5 83 bb 26 81 10 3d 30 6f 51 3c
       -0.052146256 -0.0040232763 0.035279416 0.012782857
0003b0 60 e5 24 bd b4 b3 6c bd 20 57 06 3d 0e db 6d 3d
       -0.04025781 -0.057788566 0.032797933 0.058070235
0003c0 1a 9b 0a bd c0 db cd 3a cc ca 29 bd 00 59 7a bd
       -0.033839323 0.0015705749 -0.041453168 -0.061120033
0003d0 44 ef 07 bd fc 8b c8 3c a4 01 6e bd 60 f1 e0 bc
       -0.033187166 0.024480812 -0.058107033 -0.027458847
0003e0 00 66 a8 ba 0a 02 44 bd 2e c1 33 3d 48 ce 1c 3d
       -0.0012847781 -0.047853507 0.043885402 0.038282663
0003f0 da c5 08 bd e0 d9 cd bb f0 c0 32 bc 36 e0 1a 3d
       -0.03339181 -0.0062820762 -0.010910258 0.03781148

bias f4 [128]
000000 a0 39 4b bb 8a dd 55 bd 9c 0b 86 3c 28 9b 6a 3c
       -0.003100969 -0.05221323 0.016362958 0.014319219
000010 28 8c 77 bd da 83 3e 3d b0 46 e9 3b 08 01 4c bc
       -0.060436398 0.046512462 0.0071190223 -0.012451418
000020 6e 7a 40 bd 40 56 3f bb ec c8 66 bd b8 f3 42 bd
       -0.046991758 -0.0029195696 -0.056343958 -0.04759571
000030 96 80 2f bd 18 a5 6a bd 72 9b 6f bd be 9c 56 3d
       -0.04284724 -0.057286352 -0.058497854 0.052395575
000040 dc ad 8a bc 60 bd 37 3c 82 0c 17 bd 32 11 08 3d
       -0.016928606 0.011214584 -0.036877163 0.033219524
000050 9c 2e 8f 3c 82 57 58 3d 98 d1 2b bd 42 fe 09 3d
       0.01747828 0.05281783 -0.04194793 0.033689745
000060 2c 0d b4 3c 20 f1 7e bd 40 59 08 bd 8e 60 32 3d
       0.021978937 -0.062241673 -0.03328824 0.043549113
000070 1e a1 5b bd e6 38 01 bd 1c d0 ba bc 38 e0 48 3c
       -0.05362045 -0.031548403 -0.022804312 0.012260489
000080 6c ba f2 bc 76 f1 0c bd 74 89 37 bd ac 90 a1 3c
       -0.029629909 -0.034409963 -0.04480882 0.019722305
000090 94 cb 8a bc a8 f0 2e bc 6c 36 fc 3c ea 15 31 bd
       -0.016942777 -0.010677494 0.03078767 -0.04323379
0000a0 34 f4 36 3d f4 76 bc 3c 56 5f 00 bd 30 40 90 bc
       0.044666484 0.02300594 -0.03134092 -0.017608732
0000b0 ca cd 1e bd b0 1f 0d bd fc 14 4b 3d 76 f3 71 3d
       -0.038770474 -0.034454048 0.04958056 0.059070073
0000c0 2c ee 52 bd c0 26 9d 3c 98 74 1e bc 48 20 7e bd
       -0.05149667 0.019183517 -0.009671353 -0.062042505
0000d0 80 9e 9e 3a 0e 9f 78 bd c0 69 15 bc 88 43 0a 3d
       0.001210168 -0.06069856 -0.009119451 0.03375581
0000e0 00 1b 9c b9 26 34 1e 3d 98 2a 72 3c 14 d9 b4 3c
       -0.00029774755 0.03862395 0.014780663 0.022076167
0000f0 30 64 44 bc 00 f3 bb b9 20 c6 b8 3c aa 7b 3c 3d
       -0.011986777 -0.00035848469 0.02255541 0.046016373
000100 2c 63 bd 3c f0 92 a8 3c 00 27 20 bb b8 ef 45 3c
       0.023118578 0.020577878 -0.0024437308 0.012081079
000110 80 b8 60 3d 5a 0c 01 3d b4 c1 bc bc b8 9e e6 bc
       0.054863453 0.03150592 -0.023041584 -0.028151855
000120 64 3f 6c 3d 04 0f e3 3c e2 1d 3a 3d da cf 7d bd
       0.05767764 0.027717121 0.045438655 -0.0619658
000130 2e 5e 02 bd b2 58 72 bd 1c 80 78 bd 9c 8c 86 bc
       -0.031828098 -0.059166618 -0.06066905 -0.01642447
000140 66 24 69 bd 0c d1 48 bd fc ba a0 bc 2a 49 49 3d
       -0.056919478 -0.049027488 -0.019620411 0.04914204
000150 bc 4b 8b 3c 18 53 34 3c ba a3 5f bd 88 36 05 bd
       0.017003886 0.011006139 -0.0545995 -0.03252271
000160 30 3e bb 3b 20 d5 12 3d 30 42 a4 3b f0 01 68 3d
       0.0057142004 0.035847783 0.005012773 0.056642473
000170 de 43 69 3d ee 70 77 3d 70 4d fa 3b e0 af bd 3c
       0.05694949 0.060410433 0.007638626 0.023155153
000180 46 f7 6a 3d b0 3f 61 bd 08 69 64 3d 1e d6 1c 3d
       0.057364725 -0.054992378 0.055764228 0.038290136
000190 c0 92 57 bb 80 7c b2 3b 28 d1 ea bc 38 1f 38 bd
       -0.0032893866 0.0054469705 -0.028664187 -0.044951648
0001a0 e0 23 75 3b 36 eb 7d 3d ce 35 3b bd 4e d6 15 3d
       0.0037405416 0.061991893 -0.04570561 0.03658133
0001b0 ac 02 fd bc b0 6d b0 3b 40 ac 06 bd 5c d3 ce bc
       -0.030885063 0.0053841695 -0.032879114 -0.025247268
0001c0 a4 16 f9 bc e0 de e4 bb 26 24 6d 3d 04 55 8b bc
       -0.030406304 -0.0069845766 0.057895802 -0.017008312
0001d0 44 c4 46 bd d4 99 24 3d ba fa 1f 3d e0 7d f6 bc
       -0.048527017 0.040185764 0.03905747 -0.030089319
0001e0 e6 39 56 bd 66 f4 2a 3d 08 94 53 bd 38 94 7a 3c
       -0.05230131 0.041736983 -0.051654845 0.015294127
0001f0 00 d5 10 bd 46 1b 5e 3d c0 ed 08 3d 70 f0 ef 3b
       -0.035359383 0.05422523 0.03342986 0.0073223636

weight f4 [64, 128]
000000 7f 6e cc bc ff 97 85 3d fa bc ac 3c 6b 58 a9 bd
       -0.024955032 0.065231316 0.021086205 -0.082688175
000010 c4 2f 08 3d f3 2d 7d 3d 10 18 b1 3c e4 a0 6b bd
       0.033248678 0.0618114 0.02161792 -0.057526484
000020 be d1 f9 bb b6 53 57 3d cb c9 80 3d 77 8f f2 3b
       -0.00762388 0.052570067 0.06288489 0.0074023562
000030 c2 b0 0a bc 57 2a 24 bd 36 1e ad 3d 8f f8 72 3c
       -0.008464994 -0.04007944 0.08453028 0.014829769
000040 3f 6c 7a bb 19 ab f0 bb 82 60 f6 bb 1b 4e 9e 3d
       -0.0038211492 -0.007344615 -0.007518829 0.07729741
000050 7b 7e 90 3c f2 3f 14 bd c3 e5 10 bd 6e e7 d1 3c
       0.017638436 -0.036193796 -0.035375368 0.02562305
000060 82 a3 15 bd dc a5 c6 bc 8f af b1 3c a8 a9 8a 3d
       -0.036532886 -0.02424901 0.021690158 0.067706406
000070 5d 39 af bd 65 06 05 3c 79 6d aa 3d 2a 17 a6 3d
       -0.08555863 0.0081192 0.083216615 0.08109887
000080 89 1c 2b 3d 7f 81 38 bc ae 3f ad 3c 0b 48 40 bc
       0.04177526 -0.011261343 0.021148529 -0.011735926
000090 3c 6e 83 3d 62 47 b1 bd 84 39 99 3d 68 68 b4 3d
       0.0641751 -0.08656193 0.07481673 0.088089764
0000a0 b0 1a 5e bd 20 6f 70 bd 46 f2 80 bd 04 91 0c bc
       -0.05422467 -0.058699727 -0.0629621 -0.008579496
0000b0 77 ea aa 3c 82 4a 9c bc 15 3f 5c 3d 17 df 94 3c
       0.020863755 -0.019078497 0.053771097 0.018172784
0000c0 ad b2 a4 3d 25 2f 9e 3d d7 e5 09 3d 57 3c fe 3c
       0.08041892 0.07723836 0.033666458 0.031034632
0000d0 6c b0 5f bd 87 20 0d 3d 05 bd 04 3d 2b 10 83 bd
       -0.05461161 0.03445485 0.032406826 -0.06399568
0000e0 fc 54 84 bd 1b 02 51 3c 67 41 4f 3b 57 74 83 3d
       -0.06461522 0.01275685 0.0031624676 0.064186744
0000f0 c0 32 84 3c 9a 71 48 3d 0b 3a b2 3d 20 93 58 bd
       0.01613748 0.048936464 0.08702477 -0.052874684
000100 1c 5d 81 3d 78 1a 9b bd 86 7c 97 bd b8 53 88 3d
       0.06316587 -0.07573408 -0.07396798 0.06656593
000110 7a 0b ae bd f3 51 c3 3c 05 4b d2 bc c9 9b 8d bd
       -0.08498283 0.023842787 -0.025670538 -0.06914479
000120 39 2d aa bd a8 97 1b 3d fd e6 01 bd 91 55 cd bc
       -0.08309407 0.037986428 -0.03171443 -0.025065215
000130 24 ba 75 bd 84 33 59 3c aa 71 12 3d 12 63 d5 bc
       -0.05999197 0.013256911 0.03575293 -0.026048217
000140 fb 92 ed bc f6 76 54 bc 4c 4a 2d bd 97 5a 04 3d
       -0.02900075 -0.012967816 -0.042307183 0.032312956
000150 67 b7 42 bd 92 51 2f 3c c8 c0 1f bd 0c 74 ed 3c
       -0.047538187 0.0107006 -0.03900221 0.028986
000160 95 29 25 3c b4 55 87 bd e2 40 bc 3c 75 56 91 3b
       0.010080715 -0.066081434 0.022980157 0.0044353553
000170 5e d2 45 3d 68 4a 45 3d 2e 2c ff bc 76 f7 40 3d
       0.048296325 0.048166662 -0.031148996 0.047110997
000180 94 39 9e 3d 37 5f 88 bd da 0b af bc 79 bf 5f 3d
       0.07725826 -0.06658786 -0.021367956 0.054625962
000190 d0 f6 9a 3b 80 4d 32 3d 01 e9 72 3c e2 c6 5d 3c
       0.0047291294 0.04353094 0.01482606 0.013536187
0001a0 5a e7 7d 3d 46 30 80 bc cb 17 1d bd ef 40 97 bd
       0.061988212 -0.015648019 -0.03835277 -0.07385432
0001b0 24 0f 04 bd 46 6c f9 bb 02 22 e3 bc ce 38 60 bc
       -0.032241 -0.007611784 -0.027726177 -0.013685418
0001c0 dd 8a a3 bc 23 d3 89 3d 65 6c 9f 3d 79 09 98 3d
       -0.019963676 0.06729724 0.077843465 0.07423682
0001d0 0e e5 2d 3c fb 8c 17 bd a0 e9 54 bd 02 14 ad bd
       0.010613693 -0.036999684 -0.051980615 -0.08451082
0001e0 11 5f 25 bd dc f3 a1 bc 03 1b 8d 3c f9 64 9c bd
       -0.040373866 -0.019769602 0.017224794 -0.076364465
0001f0 84 41 79 3d 3f a6 c4 bc b6 72 2e bd e4 9f 77 bd
       0.060853496 -0.024005054 -0.042589866 -0.060455218
000200 99 9b 3d bd 60 5a 3e 3d dc 5b 96 bd a5 3a ad bc
       -0.046290968 0.046472907 -0.073417395 -0.021146128
000210 ff 8c 5e 3d 9c 86 43 3d 9c 32 9a bc b8 a4 4d 3c
       0.054333683 0.047735795 -0.01882296 0.012551479
000220 99 88 75 3d 87 f7 1a bd 19 cb 21 3d f9 04 b5 bc
       0.059944723 -0.037833717 0.03950033 -0.022097098
000230 5d d1 ba 3c e8 21 b3 bb 7d c8 2a bd d7 50 98 3d
       0.02280491 -0.0054666884 -0.041695107 0.07437294
000240 84 9e 1d bd c6 ed 72 bc ab d2 47 bc 30 89 f2 3c
       -0.03848125 -0.014827197 -0.012196223 0.029606432
000250 c9 15 ad bb ba 98 08 bc 22 b8 0d 3d 5a 02 c0 bc
       -0.005282138 -0.008337194 0.03459943 -0.023438621
000260 85 96 32 3c 36 4f ad 3d 48 ea b0 bd 5c ab 83 3d
       0.010900144 0.08462374 -0.086384356 0.064291686
000270 96 ad 1d 3c dc a0 54 3d 86 bf e6 bb d2 31 a9 bd
       0.009623906 0.05191122 -0.0070418743 -0.082614556
000280 d7 71 18 3c 1d b0 a0 3c a6 3b 44 3d ab 67 2f 3c
       0.009304485 0.019615227 0.047908448 0.010705869
000290 77 72 7c 3c 74 5b 38 3d 77 db 9a bd 12 27 f8 3c
       0.01540815 0.04500909 -0.07561391 0.030292068
0002a0 80 19 9f 3d 14 db 9a 3c a3 0d 3d 3d 8c a8 61 3d
       0.077685356 0.018903293 0.046155583 0.05509238
0002b0 da 3c 83 bd e7 86 f4 bc 34 66 ab 3d 18 18 2b 3d
       -0.06408091 -0.029849483 0.08369103 0.041771024
0002c0 5c 58 6d 3c 68 e7 d1 3c 08 f3 92 bc 86 7c 62 3d
       0.014486399 0.025623038 -0.017938152 0.055294536
0002d0 12 d7 b9 3c 51 87 a7 bd da d5 62 bd 2e 78 9f bd
       0.022685561 -0.081801064 -0.055379726 -0.07786594
0002e0 c3 bf 43 bd 5d 16 8d 3d da 26 b4 3d f1 ab ae bd
       -0.0477903 0.06889031 0.08796473 -0.08528889
0002f0 9d 4b d7 bc 9d 99 b2 3b 52 18 81 3d 72 21 4c bd
       -0.026281172 0.005450441 0.06303467 -0.049836583
000300 32 24 37 3d 2d 9a 90 3d f5 f3 c5 bb c6 d4 39 3c
       0.044712253 0.07060657 -0.006041045 0.011342233
000310 cc e4 9b 3d aa 60 0b bd 36 2a 81 bd f8 c1 5d bd
       0.07611999 -0.034027733 -0.06306879 -0.05414006
000320 9f 73 20 3d 65 0c 83 3c 64 a2 86 bd d3 b3 74 3c
       0.039172765 0.015997121 -0.06573942 0.014935452
000330 a2 78 47 bd 66 b7 b1 bd 7d 95 a9 3d 02 6b 95 bd
       -0.04869903 -0.086775586 0.08280466 -0.07295801
000340 9a 98 e3 bc 85 14 9c 3d 53 09 9b 3d 7d dc 86 3b
       -0.027782727 0.07621101 0.07570138 0.0041156397
000350 22 7c bb bc d4 fe a4 3d 79 80 93 3c 5a 6b 30 bc
       -0.02288634 0.08056417 0.018005596 -0.010767782
000360 d2 e1 7f bd 68 cf e7 3c 26 3a f2 bc 61 ad 08 3d
       -0.06247122 0.028297141 -0.029568743 0.033368472
000370 4a c0 f4 bc b1 0f 43 bd 92 0b 3b 3d ee c9 c0 bc
       -0.029876847 -0.047622386 0.04566533 -0.023533788
000380 40 05 2a 3c 7e 4e af bd af b3 61 3d 9a b8 bd 3c
       0.010377228 -0.08559893 0.055103 0.023159314
000390 72 b1 25 3d a0 4b b0 3d 7b 20 33 bd 1d 92 81 3d
       0.04045243 0.08608174 -0.043732148 0.06326697
0003a0 bd 44 36 bc 5e 02 71 3d ac f0 d0 3c e9 30 85 3d
       -0.011124787 0.05884015 0.025505386 0.065034695
0003b0 f6 b7 63 3d 67 90 89 3d 3e 0c 39 bd bc 6e da 3c
       0.05559536 0.06716996 -0.04517769 0.02666413
0003c0 c1 be aa 3d 8a 76 a6 bc b2 3d 90 3d f6 fd 87 3d
       0.08337165 -0.020320196 0.070430174 0.06640236
0003d0 e6 dc a7 bd 76 15 99 bd 5e 0c b2 3c f1 6c e7 3b
       -0.0819643 -0.074747965 0.021734413 0.0070625474
0003e0 3b 14 20 bd 26 35 a3 3c 4e f9 9b 3d 4c b7 69 3d
       -0.039081793 0.019922804 0.076159105 0.05705957
0003f0 4c d6 1a 3d d6 f1 f3 bc 2e b4 5f 3d c7 c4 52 3d
       0.037802026 -0.029778402 0.054615192 0.051457193

bias f4 [64]
000000 3b 15 a2 3d ba fe 00 bd 3f e3 df b9 82 d9 79 3d
       0.07914206 -0.031492926 -0.00042703186 0.060998447
000010 d0 31 23 3d 43 93 a0 bd b7 24 5d 3d 85 ea 6d 3d
       0.039842427 -0.07840588 0.053990092 0.058084983
000020 6b e1 21 bd 59 6f 46 bd 22 16 98 3d 3e 4f 45 bc
       -0.039521616 -0.048446033 0.074260965 -0.012042819
000030 81 39 87 3d 52 cc 9e 3c cb 9b 05 3d a4 69 3e 3c
       0.06602765 0.019384537 0.03261928 0.011621866
000040 e6 ef 99 bd 27 db 8c 3c 88 62 9e 3d b2 13 1a bc
       -0.0751646 0.017194344 0.07733637 -0.00940411
000050 a9 ab 11 bd 8a e8 50 3d e6 d0 15 bc 74 8c 49 bd
       -0.0355641 0.051003017 -0.009144044 -0.049206212
000060 78 53 b2 bd 63 c2 07 3c de 4d 25 3c b6 d8 6d 3d
       -0.08707327 0.0082860915 0.010089366 0.058068
000070 f2 76 d3 3b fd 2c 03 3c 8a 56 b8 3a 79 73 58 3d
       0.0064533884 0.0080063315 0.0014063877 0.0528445
000080 2b 2e 4b 3d b9 f2 8a 3d 85 6b 8c 3d e9 bd 29 3d
       0.049604576 0.06784577 0.06856445 0.041440878
000090 95 56 91 3d d3 bc 88 3d 43 d0 b1 bb 75 f0 03 bc
       0.07096592 0.0667664 -0.005426438 -0.008052935
0000a0 2a c3 6f 3d 60 9a 9d bd 14 08 06 bd 96 d5 66 bd
       0.058535732 -0.0769546 -0.032722548 -0.056356035
0000b0 dd d9 8a bd 25 35 56 bc db 67 2f bd 70 25 4d 3d
       -0.067798354 -0.013074194 -0.042823654 0.05008453
0000c0 0f ba 15 3d a9 e8 a0 bc 3e 19 a3 bb f9 e0 89 3d
       0.036554392 -0.019642191 -0.0049773743 0.06732363
0000d0 6c be 0d 3d b0 7c 23 3d 08 2a b2 bd 45 1b 52 3c
       0.03460543 0.039913833 -0.08699423 0.012823884
0000e0 93 42 3e bc 7f dc 95 3c ef e7 8a 3c 1f 40 84 bd
       -0.011612552 0.018293617 0.016956298 -0.06457543
0000f0 ad 3b 11 3a a8 ad a0 3d 98 ee d0 bc 87 44 2e 3d
       0.00055402034 0.07845622 -0.025504395 0.04254582

weight f4 [35, 64]
000000 d4 4b 61 3d b0 16 8e bc fa e8 e2 bd 0c ce 6c bd
       0.055003956 -0.017344803 -0.11079593 -0.05781369
000010 a0 00 ef bb b0 04 1a 3c c0 f0 73 bb d8 ce e4 bc
       -0.0072937757 0.009400532 -0.0037222356 -0.027930662
000020 fc 80 f5 3d 36 d1 af 3d 48 fd 44 bd d0 51 4e bc
       0.119874924 0.08584826 -0.04809311 -0.012592748
000030 e6 2f c6 bd 60 6e 2a 3d 3a 7a 94 3d 5c 58 17 3d
       -0.09677105 0.041609168 0.07249875 0.0369495
000040 60 52 c4 bb 00 54 90 39 90 55 2a 3d 00 88 df 3b
       -0.005991265 0.00027528405 0.041585505 0.0068216324
000050 78 c7 0f bd a2 ea a6 bd 4a ba f2 3d 1a fd ba bd
       -0.035102338 -0.081502214 0.11851938 -0.091303065
000060 b6 f7 92 3d e4 04 ae 3d c0 36 ad 3c d0 b9 b8 3d
       0.07176153 0.084970266 0.02114427 0.09019816
000070 18 2f 6c bd 00 d9 ff bc 58 b9 98 3c 50 5b 96 bc
       -0.0576621 -0.031231403 0.018643066 -0.018354088
000080 36 5a e6 bd 4a 96 a0 3d d8 9f 11 3d d4 f0 29 bd
       -0.11247675 0.07841165 0.03555283 -0.041489437
000090 c0 95 85 bb 4e ae 8c 3d e0 80 8d bc 62 8e a4 bd
       -0.0040766895 0.068691835 -0.017273366 -0.0803497
0000a0 6a d7 de bd 8c 0d b4 bd ec d3 23 bd 84 e0 97 3d
       -0.10880931 -0.08791646 -0.039997026 0.0741587
0000b0 16 56 c3 3d f0 c5 f9 3d d6 24 a9 3d 68 ff 2c 3d
       0.09537904 0.12195957 0.08258979 0.042235762
0000c0 e2 a0 c1 bd 64 aa d1 bd e4 a6 f7 bd 36 aa fb 3d
       -0.09454514 -0.102375776 -0.12092379 0.122883245
0000d0 80 1c 40 3c 90 d8 87 3d 64 10 ad bd 9c 6b e1 3d
       0.011725545 0.06633103 -0.08450392 0.11006853
0000e0 40 68 6a bd b0 1c a5 bd 76 75 ff bd 00 30 7d 39
       -0.057228327 -0.08062112 -0.12473576 0.00024145842
0000f0 e0 a5 03 bc 70 ac c0 3d d8 dd 99 bc 04 17 c1 3d
       -0.008035153 0.0940789 -0.018782541 0.09428218
000100 10 16 c2 bd 18 82 fd 3c b4 5f 9a 3d 12 dd e8 bd
       -0.09476864 0.030945823 0.07537785 -0.11370291
000110 da 10 99 3d 20 1a c7 bb 00 8b 82 3d 00 17 fb ba
       0.07473917 -0.0060761124 0.063741684 -0.0019156635
000120 86 a4 b4 bd a0 b2 80 bd 5a 2d e7 3d dc b0 4d bd
       -0.08820443 -0.0628407 0.11287947 -0.050217494
000130 4c 5e 0f 3d f8 2d c1 bd 80 b7 a3 bb 5e f9 8e 3d
       0.035002038 -0.09432596 -0.00499624 0.06981157
000140 20 e0 63 bd 4e eb 99 bd e8 80 06 bd f0 c1 cc 3d
       -0.055633664 -0.07515584 -0.03283778 0.09997928
000150 3a cd d0 3d c4 ab 0b 3d a0 12 ca 3d d8 12 fc 3d
       0.10195394 0.034099355 0.09866834 0.12308282
000160 b0 e4 bb bd c0 dd 37 bd d8 d9 da bc e0 c9 84 3c
       -0.09174478 -0.04488921 -0.026715204 0.016209543
000170 fa a0 ce bd 80 e2 8a bc 66 1a 8f 3d 76 b9 b2 3d
       -0.100892976 -0.016953707 0.06987457 0.0872678
000180 ec 59 af bd 54 45 55 3d 40 52 31 3b e4 6f de bd
       -0.08562073 0.05206807 0.0027057081 -0.10861185
000190 fc b5 45 3d 68 97 be bd aa c1 ff 3d 24 0e f3 3d
       0.048269257 -0.09306222 0.1248811 0.118679315
0001a0 4c 54 3e 3d 84 a8 a1 3d 70 89 af bd d0 15 8e 3d
       0.04646711 0.0789347 -0.08571136 0.06937754
0001b0 54 36 fe bd 18 83 e6 3d 34 64 9c 3d 14 44 e7 bd
       -0.12412706 0.11255473 0.076363 -0.11292282
0001c0 9c f4 a6 bd 6c fd a0 bd c0 ba 38 3c 5c c3 4c 3d
       -0.08152124 -0.078608364 0.011274993 0.049990997
0001d0 6e 93 aa 3d 00 61 40 bd 9e 74 f2 3d ca 54 e2 bd
       0.08328901 -0.046967506 0.11838649 -0.110513285
0001e0 28 58 97 bd 9e 7d b6 bd 7c 88 20 bd 7a 1a c0 3d
       -0.07389861 -0.08910678 -0.03919266 0.0938005
0001f0 10 ae 5e bd 40 0e a1 3c 80 51 a2 3d 10 6a 86 3c
       -0.054365218 0.019660115 0.07925701 0.016407996
000200 34 84 22 3d 9e 57 ce 3d c8 09 d8 3d f8 a7 cb bc
       0.03967686 0.100753054 0.105487406 -0.024860367
000210 ea 29 d6 3d 94 12 56 3d 60 12 53 bd 54 63 9a 3d
       0.10457213 0.05226381 -0.051531196 0.075384766
000220 26 88 cc 3d 58 91 3b bd 88 5d a2 bd 5c fc 6f 3d
       0.09986906 -0.045792907 -0.07927996 0.058590278
000230 18 40 8d 3d f4 1f c8 3d e8 25 a4 bd f2 b1 d4 3d
       0.068969905 0.097717196 -0.080150425 0.10385503
000240 e6 9e 84 bd 1c 9a f4 bd fc 2c 00 3d 44 4b dd bd
       -0.0647562 -0.119434565 0.0312929 -0.108053714
000250 d8 0e f0 3c da 6a aa 3d 7a a9 b3 3d bc a0 39 bd
       0.029303953 0.083211616 0.087725595 -0.045319304
000260 a2 7d d3 bd 68 0f 28 3d 04 ad 28 3d da 4d 89 3d
       -0.10326697 0.041030318 0.041180626 0.06704302
000270 f0 16 07 bc 4e d1 9f 3d 80 84 59 3d ae fd ee bd
       -0.008245215 0.078035936 0.053104877 -0.11669479
000280 9e 2e 9d 3d d8 55 c5 bd 6a f1 f9 3d fa 85 cb bd
       0.07674907 -0.09635514 0.12204249 -0.099376634
000290 88 92 23 3d 54 60 ab 3d 58 3b 8a 3c 4c 3d 9a 3d
       0.039934665 0.083679825 0.016874 0.07531223
0002a0 60 0a ea 3d 04 6d ae bd 34 e2 4b 3d 60 9a af 3c
       0.1142776 -0.08516887 0.04977627 0.021435916
0002b0 c0 db e8 bc f2 bd e5 bd 98 62 b0 bc 70 4a b6 bc
       -0.028425097 -0.1121787 -0.021531388 -0.022252291
0002c0 c8 23 d8 bd 4c af c1 3d 78 b2 c1 bc 0c 4c a9 3d
       -0.105537 0.09457263 -0.02364467 0.08266458
0002d0 50 91 76 3c 80 44 c0 3d aa 4f f6 3d 80 f4 98 ba
       0.015049294 0.09388065 0.120269135 -0.0011669546
0002e0 40 25 dc 3c 5a 57 bf bd 26 7b 91 3d 58 cf 78 3d
       0.026873231 -0.09342833 0.07103567 0.060744613
0002f0 98 3f b9 bd 4c 9e 4c 3d 68 48 98 3d 24 a4 ba 3d
       -0.09045333 0.04995565 0.074356854 0.091133386
000300 6a 9b e8 bd ac ff 01 bd 38 60 53 3d 92 ae e9 3d
       -0.11357768 -0.03173797 0.051605433 0.1141025
000310 1c 7f f9 3d 18 9e 16 bd 30 d1 64 3d c6 97 f9 bd
       0.12182447 -0.036771864 0.05586356 -0.121871516
000320 30 76 e0 3d 80 56 29 bd 16 e0 ab 3d b8 d5 5f 3d
       0.109600425 -0.04134226 0.083923504 0.054647177
000330 00 68 3b 3d 08 b7 a5 bd 20 ce 48 3c 3c 72 05 3d
       0.04575348 -0.08091551 0.012256175 0.032579646
000340 60 2d 81 bb 34 bb ec bd a0 da e8 3d 3c 4e 33 3d
       -0.0039421767 -0.11559144 0.113698244 0.043775782
000350 22 ac a6 bd 02 1f b3 bd 22 dc 8a bd 1c f0 59 bd
       -0.081383005 -0.08746149 -0.06780268 -0.0532075
000360 d6 62 a4 bd f2 7e 9d 3d 80 3a ca ba 58 cd 25 bd
       -0.08026664 0.076902285 -0.0015428811 -0.040479034
000370 70 4f 51 bd 0a ed 93 3d c6 30 df bd c8 77 b5 3c
       -0.051101148 0.07222946 -0.10897975 0.022151843
000380 4e 56 a1 bd 26 e8 cf 3d 5e 57 89 3d 94 99 f8 3d
       -0.078777894 0.10151701 0.06706117 0.12138668
000390 58 18 a4 bc 70 df cb 3d f2 dd ff bd a6 1d df 3d
       -0.02003114 0.09954727 -0.124935046 0.10894327
0003a0 e2 60 f9 bd 00 83 c6 bd 9c e6 24 3d 1c 76 30 3d
       -0.12176682 -0.09692955 0.04025899 0.043081388
0003b0 6c 43 a7 bd c8 9d 11 3d 54 e7 fb bd d8 d5 ad 3c
       -0.081671566 0.035550863 -0.12299982 0.021220133
0003c0 34 2b 97 3d 50 a0 71 3d 9e 9e ec bd 90 83 10 bc
       0.07381287 0.058990777 -0.11553691 -0.008820429
0003d0 e0 7a bf bd 20 25 9b bd 60 83 82 bc 9e 1e f7 3d
       -0.093496084 -0.075754404 -0.015931785 0.12066387
0003e0 40 5c bf bb 40 98 38 bb 94 f0 87 bd a0 d4 2c bc
       -0.0058398545 -0.002816692 -0.066376835 -0.010548741
0003f0 24 ec 19 3d 80 4e 40 3d 26 ed b7 3d 48 45 f2 bc
       0.037578717 0.046949863 0.08980779 -0.029574051

bias f4 [35]
000000 12 67 d3 3d f0 03 6d bc 40 03 86 bd 00 f4 f4 bb
       0.103223935 -0.014466271 -0.06543589 -0.007475376
000010 f8 17 cb 3c 30 24 79 3d a6 8e 92 bd ee f3 d7 bd
       0.024791703 0.060825527 -0.07156114 -0.10544573
000020 00 e3 38 3d e0 cb d2 bc a4 1e 2d bd 50 03 24 bc
       0.04513836 -0.02573198 -0.04226555 -0.010010555
000030 9c 04 af bd 58 c2 d4 bc 80 15 8f bc f4 a0 e2 3d
       -0.08545801 -0.025971577 -0.017466307 0.110658556
000040 f0 1d 1e 3c b0 1e af 3c 24 40 7e 3d 56 31 b5 bd
       0.009650692 0.021376938 0.062072888 -0.08847301
000050 80 49 ac 3a a8 e9 d9 bd 52 1e c6 3d 96 ac cc 3d
       0.0013144463 -0.106402695 0.09673752 0.09993856
000060 54 20 10 bd 80 c7 14 bd 82 86 9a bd 06 07 fb bd
       -0.03518708 -0.03632307 -0.075451866 -0.12257199
000070 58 40 cf bc c0 b9 0e 3b 48 fb bc 3d c0 98 a1 3d
       -0.025299236 0.0021778196 0.092276156 0.07890463
000080 b0 5e 90 3c d4 8c a2 3d 36 30 a3 3d
       0.017623276 0.07937017 0.0796818
